Ex6_trained.pth (torch, 44607 bytes, 15 tensors)

conv1.weight f4 [16, 1, 3, 3]
0.07602955 0.22316752 0.08934429 0.36272466 -0.10155267 0.07407487 0.24066666 0.3276209
-0.15338321 -0.27865374 -0.0511292 0.14676999 -0.028037172 0.09575985 0.03260203 -0.17393672
-0.21023156 0.2121294 -0.022808405 0.10375369 -0.2646978 0.14338663 -0.10844978 -0.3110789
-0.22743568 0.06881823 -0.23739675 -0.05763353 0.05576836 0.23774806 -0.16400418 -0.05450242
-0.034217175 0.060545307 0.028150903 0.07135472 0.10554668 -0.07340169 0.015905587 -0.19504872
-0.106128566 -0.10177423 -0.07033042 0.3043143 -0.23057479 0.20445833 0.10093337 -0.3171416
0.32481173 0.26784799 0.26493007 -0.05606056 -0.20682937 -0.1909078 -0.29071742 -0.19931191
-0.2070757 -0.024310248 -0.27414536 0.17125405 0.28773567 -0.010381788 -0.31756952 0.104653545
0.31067482 -0.01715201 -0.12776574 -0.025343467 0.07513008 0.14501908 -0.31792462 -0.21049719
-0.22133382 0.089644305 0.351975 0.16294307 -0.016355375 0.12233493 -0.09540379 -0.29123032
0.3425683 -0.22570424 -0.054193925 0.01859657 -0.37688804 -0.12053946 -0.30083248 0.14333183
-0.14538433 -0.0070891045 0.18585727 -0.113709055 -0.15299498 0.4614569 0.26015452 0.24819602
0.06877086 -0.024242757 0.1454202 -0.13392594 -0.025833838 -0.059040688 -0.22207446 -0.10042295
-0.07947595 0.018876018 0.0063475994 0.21126942 0.022857523 0.29025343 0.14877142 -0.3439539
0.29071492 -0.20810035 0.08388549 0.20029742 0.24993272 -0.09455332 -0.1833296 -0.34613255
0.02894282 -0.23618282 -0.038924962 -0.25601894 -0.11182514 -0.2835572 -0.22616148 0.14892168
0.35034886 0.2569214 0.16678235 -0.036687374 0.17017737 0.12871735 -0.087696224 -0.24334244
0.23460868 -0.11712194 0.1245211 -0.20356509 0.120751046 -0.26602095 -0.24702756 -0.046866734
00000000: 61b5 9b3d 0786 643e 24fa b63d 0cb7 b93e
00000010: d9fa cfbd 91b4 973d 5271 763e edbd a73e
00000020: 7d10 1dbe b4ab 8ebe da6c 51bd df4a 163e
00000030: 36ae e5bc be1d c43d b589 053d 781c 32be
00000040: f146 57be 7338 593e b1d8 babc d17c d43d
00000050: 7886 87be f2d3 123e eb1a debd bc45 9fbe
00000060: e6e4 68be 92f0 8c3d 2218 73be 2311 6cbd
00000070: 5d6d 643d 3a74 733e b6f0 27be ee3d 5fbd
00000080: 4f27 0cbd 5bfe 773d b99c e63c 6c22 923d
00000090: dc28 d83d a053 96bd 6f4c 823c daba 47be
000000a0: ef59 d9bd 026f d0bd 6509 90bd 15cf 9b3e
000000b0: cc1b 6cbe 865d 513e 28b6 ce3d 6260 a2be
000000c0: b94d a63e 5f23 893e eaa4 873e c29f 65bd
000000d0: 14cb 53be 567d 43be ead8 94be 6c18 4cbe
000000e0: a70b 54be 4926 c7bc c85c 8cbe 395d 2f3e
000000f0: 1752 933e 6018 2abc 7998 a2be 9954 d63d
00000100: c510 9f3e 5f82 8cbc 06d5 02be 1a9d cfbc
00000110: cddd 993d e27f 143e 04c7 a2be 938c 57be
00000120: 55a5 62be 6f97 b73d 1136 b43e 8cda 263e
00000130: b5fb 85bc bc8a fa3d 1063 c3bd 241c 95be
00000140: 1d65 af3e 031f 67be 73fa 5dbd d557 983c
00000150: 78f7 c0be 64dd f6bd b706 9abe 94c5 123e
00000160: a1df 14be b84b e8bb 5e51 3e3e 4be0 e8bd
00000170: b7aa 1cbe 1444 ec3e f932 853e 1927 7e3e
00000180: bdd7 8c3d bf98 c6bc 08e9 143e e223 09be
00000190: 7ca1 d3bc a6d4 71bd 7d67 63be 8caa cdbd
000001a0: 49c4 a2bd e1a1 9a3c 86ff cf3b 0357 583e
000001b0: b33f bb3c 199c 943e 8957 183e ba1a b0be
000001c0: 96d8 943e 4218 55be 28cc ab3d c41a 4d3e
000001d0: 5dee 7f3e 2ca5 c1bd c1ba 3bbe 4938 b1be
000001e0: 7e19 ed3c e9d9 71be c86f 1fbd ea14 83be
000001f0: 9404 e5bd 692e 91be e096 67be ed7e 183e
00000200: ed60 b33e 348b 833e fec8 2a3e 8045 16bd
00000210: fa42 2e3e 7bce 033e 149a b3bd c32e 79be
00000220: 423d 703e a1dd efbd eb04 ff3d 5e73 50be
00000230: 534c f73d e633 88be cbf4 7cbe 55f7 3fbd

conv1.bias f4 [16]
-0.1162925 0.1473941 0.2568575 0.08604572 -0.061144263 0.2621038 0.16921635 0.13222082
0.13700259 -0.1441256 0.32187673 -0.23003113 0.02742551 0.32492262 0.29901242 -0.12159226
00000000: c32a eebd 7bee 163e d482 833e bd38 b03d
00000010: 6872 7abd 7832 863e 0d47 2d3e e564 073e
00000020: 684a 0c3e a995 13be 07cd a43e 488d 6bbe
00000030: 77ab e03c 425c a63e 2818 993e 5d05 f9bd

bn1.weight f4 [16]
0.98250973 0.9409341 0.9816132 0.984312 0.9682174 0.98760897 0.9165905 0.96714556
0.9835529 0.9223277 0.9951696 0.96934515 0.9890035 0.91328365 0.9913323 0.96125394
00000000: c285 7b3f 0fe1 703f 014b 7b3f dffb 7b3f
00000010: 18dd 773f f1d3 7c3f ada5 6a3f da96 773f
00000020: 1fca 7b3f ab1d 6c3f 6fc3 7e3f 0127 783f
00000030: 552f 7d3f f5cc 693f f4c7 7d3f bd14 763f

bn1.bias f4 [16]
-0.00492995 -0.00702581 0.012562841 -0.002944079 0.005447859 0.01775195 -0.025734754 -0.008737974
-0.010830956 -0.034135718 0.025588684 -0.025402408 0.019569414 -0.080546685 -0.032924145 -0.047938716
00000000: 6b8b a1bb c438 e6bb 60d4 4d3c 73f1 40bb
00000010: f483 b23b 8a6c 913c b1d1 d2bc b829 0fbc
00000020: 5274 31bc e5d1 0bbd 5c9f d13c b618 d0bc
00000030: 0950 a03c a9f5 a4bd 78db 06bd 635b 44bd

bn1.running_mean f4 [16]
0.42654172 0.026212245 -0.15173385 0.15385053 -0.22857033 0.4496965 -0.24253093 0.10191952
0.3489702 -0.65481293 0.836642 -0.41373426 0.3790253 -0.40146625 0.7140677 -0.42817867
00000000: ad63 da3e 10bb d63c 1e60 1bbe fe8a 1d3e
00000010: 570e 6abe 9f3e e63e 075a 78be 2ebb d03d
00000020: 39ac b23e d2a1 27bf 2c2e 563f fad4 d3be
00000030: 9b0f c23e fc8c cdbe 24cd 363f 3c3a dbbe

bn1.running_var f4 [16]
0.090770006 0.0052090944 0.05176738 0.0017846463 0.008798705 0.012795808 0.05297779 0.0013580825
0.0147254225 0.08049771 0.082139686 0.010979912 0.03865279 0.16195147 0.053014114 0.02937472
00000000: a0e5 b93d 0db1 aa3b 080a 543d cbea e93a
00000010: 7228 103c 82a5 513c 3dff 583d b001 b23a
00000020: e642 713c fcdb a43d da38 a83d 17e5 333c
00000030: 6352 1e3d 9bd6 253e 5425 593d 41a3 f03c

bn2.weight f4 [32]
1.0 1.0 1.0 1.0 1.0 1.0 1.0 1.0
1.0 1.0 1.0 1.0 1.0 1.0 1.0 1.0
1.0 1.0 1.0 1.0 1.0 1.0 1.0 1.0
1.0 1.0 1.0 1.0 1.0 1.0 1.0 1.0
00000000: 0000 803f 0000 803f 0000 803f 0000 803f
00000010: 0000 803f 0000 803f 0000 803f 0000 803f
00000020: 0000 803f 0000 803f 0000 803f 0000 803f
00000030: 0000 803f 0000 803f 0000 803f 0000 803f
00000040: 0000 803f 0000 803f 0000 803f 0000 803f
00000050: 0000 803f 0000 803f 0000 803f 0000 803f
00000060: 0000 803f 0000 803f 0000 803f 0000 803f
00000070: 0000 803f 0000 803f 0000 803f 0000 803f

bn2.bias f4 [32]
0.0 0.0 0.0 0.0 0.0 0.0 0.0 0.0
0.0 0.0 0.0 0.0 0.0 0.0 0.0 0.0
0.0 0.0 0.0 0.0 0.0 0.0 0.0 0.0
0.0 0.0 0.0 0.0 0.0 0.0 0.0 0.0
00000000: 0000 0000 0000 0000 0000 0000 0000 0000
00000010: 0000 0000 0000 0000 0000 0000 0000 0000
00000020: 0000 0000 0000 0000 0000 0000 0000 0000
00000030: 0000 0000 0000 0000 0000 0000 0000 0000
00000040: 0000 0000 0000 0000 0000 0000 0000 0000
00000050: 0000 0000 0000 0000 0000 0000 0000 0000
00000060: 0000 0000 0000 0000 0000 0000 0000 0000
00000070: 0000 0000 0000 0000 0000 0000 0000 0000

bn2.running_mean f4 [32]
0.0 0.0 0.0 0.0 0.0 0.0 0.0 0.0
0.0 0.0 0.0 0.0 0.0 0.0 0.0 0.0
0.0 0.0 0.0 0.0 0.0 0.0 0.0 0.0
0.0 0.0 0.0 0.0 0.0 0.0 0.0 0.0
00000000: 0000 0000 0000 0000 0000 0000 0000 0000
00000010: 0000 0000 0000 0000 0000 0000 0000 0000
00000020: 0000 0000 0000 0000 0000 0000 0000 0000
00000030: 0000 0000 0000 0000 0000 0000 0000 0000
00000040: 0000 0000 0000 0000 0000 0000 0000 0000
00000050: 0000 0000 0000 0000 0000 0000 0000 0000
00000060: 0000 0000 0000 0000 0000 0000 0000 0000
00000070: 0000 0000 0000 0000 0000 0000 0000 0000

bn2.running_var f4 [32]
1.0 1.0 1.0 1.0 1.0 1.0 1.0 1.0
1.0 1.0 1.0 1.0 1.0 1.0 1.0 1.0
1.0 1.0 1.0 1.0 1.0 1.0 1.0 1.0
1.0 1.0 1.0 1.0 1.0 1.0 1.0 1.0
00000000: 0000 803f 0000 803f 0000 803f 0000 803f
00000010: 0000 803f 0000 803f 0000 803f 0000 803f
00000020: 0000 803f 0000 803f 0000 803f 0000 803f
00000030: 0000 803f 0000 803f 0000 803f 0000 803f
00000040: 0000 803f 0000 803f 0000 803f 0000 803f
00000050: 0000 803f 0000 803f 0000 803f 0000 803f
00000060: 0000 803f 0000 803f 0000 803f 0000 803f
00000070: 0000 803f 0000 803f 0000 803f 0000 803f

conv2.weight f4 [32, 16, 3, 3]
-0.058974687 -0.008494486 -0.03826865 0.042345718 -0.061557807 -0.05861737 -0.05996471 0.035611283
0.055490196 0.03192811 -0.07691401 -0.019909646 -0.02241854 0.004542033 -0.014178466 -0.030752972
0.026034549 0.016456805 -0.052495077 0.07565717 -0.014586031 0.051747955 0.057144813 -0.065173134
-0.036017373 -0.015587919 0.04323804 0.005149822 0.048028048 0.07062354 0.0062728156 0.03735067
0.017547663 -0.011792602 -0.05528687 0.07562017 -0.07042145 0.033953324 -0.03249001 -0.047615994
-0.036481373 -0.0377745 0.037756354 -0.01993968 -0.007932519 -0.059988823 -0.046187412 0.05944337
0.011548858 0.05753253 0.005839469 -0.061224535 0.082140446 0.07343144 0.062701106 -0.034224566
-0.030841157 0.03754463 0.03343566 0.03033028 -0.00915276 0.042378668 0.007983802 0.055142887
0.0031653936 -0.0447859 0.06447877 -0.0030847627 0.03635791 -0.00937365 -0.048156887 0.058978353
0.061935607 -0.045151196 -0.028783837 0.06299344 0.0519135 -0.07243962 0.033374783 0.059693627
-0.024046963 -0.02088086 -0.041239608 0.026026621 0.006688638 0.051298756 -0.008743604 -0.00019992742
0.05162036 0.07918757 -0.06884704 -0.019976294 0.06994865 -0.07997873 0.06463199 -0.04703703
-0.026656434 0.04128695 -0.018187467 -0.024851961 -0.0433047 -0.020878147 -0.01043426 -0.0416791
-0.026964819 -0.064467214 -0.005331996 -0.017262839 0.036457915 0.02588907 -0.08544296 -0.014575698
0.06935425 0.06846439 0.041350223 0.017868912 0.0025155065 0.04888461 0.027176617 0.07156096
-0.083231024 0.02856017 -0.007599552 -0.044236667 0.057086654 0.08457722 -0.084154084 -0.06019012
-0.02720429 0.026505755 -0.081266105 0.05268285 0.02180844 -0.027721735 -0.0670094 -0.08363548
-0.04293824 0.038060106 0.059659105 0.037688617 -0.03814526 -0.07397752 -0.05656875 0.029391969
-0.025132954 -0.02991572 -0.046607096 0.06313578 -0.040527612 -0.023222754 0.065860435 0.045996845
0.078093715 0.0431846 0.012967381 -0.021646399 -0.0721872 -0.037317384 -0.043249436 -0.033939067
-0.03925067 0.06902238 -0.06909305 0.08588464 0.05533386 0.09010494 0.07266128 -0.007915726
-0.026473392 0.086602025 -0.031702816 0.03371599 -0.030619092 -0.014641773 0.026067782 -0.012789254
0.03449709 -0.06805646 -0.016665839 0.013913202 -0.042074565 -0.046657067 -0.05006101 -0.064827316
0.0011562925 0.05770836 0.0107362 0.09309377 0.01651232 -0.041398834 -0.027540255 0.039997593
0.04505975 -0.062186606 -0.0558884 -0.00874728 0.022166776 -0.025904126 -0.07235478 -0.06149489
0.04771898 -0.07155454 0.046123616 -0.05603012 -0.036429055 0.07165174 -0.030498046 0.050061114
0.0070466525 0.06264223 -0.02094215 0.0675394 -0.009573444 0.041638445 -0.022269536 -0.07311587
-0.050830215 0.01784516 0.06241922 -0.037013736 0.075428136 -0.042620014 0.034897402 -0.020077469
0.010637876 0.0037783422 0.032655906 0.030524336 -0.023875147 -0.021098759 -0.07154806 0.045947842
0.0109061785 0.06291649 -0.018388737 0.067711316 0.07618499 0.018635305 0.07234079 0.0705506
-0.0684482 -0.054370765 -0.016805843 -0.039145436 -0.008163672 0.03971646 -0.028043596 0.02826573
0.0014998179 0.014623512 -0.036400836 0.08028162 0.017518003 -0.07814494 -0.019981144 -0.052910745
00000000: 718f 71bd 752c 0bbc 97bf 1cbd b472 2d3d
00000010: 0a24 7cbd c418 70bd 8e9d 75bd 23dd 113d
00000020: b049 633d 0dc7 023d 1885 9dbd 8e19 a3bc
00000030: 16a7 b7bc 56d5 943b cc4c 68bc a8ed fbbc
00000040: 6846 d53c 6cd0 863c 1405 57bd 25f2 9a3d
00000050: 40fa 6ebc aaf5 533d ae10 6a3d 7e79 85bd
00000060: f486 13bd 7964 7fbc 5f1a 313d d7bf a83b
00000070: 0fb9 443d 13a3 903d 318c cd3b 04fd 183d
00000080: 1ec0 8f3c c235 41bc 7c74 62bd bfde 9a3d
00000090: 1f39 90bd a412 0b3d 3f14 05bd fd08 43bd
000000a0: 7e6d 15bd 6fb9 1abd 68a6 1a3d 8a58 a3bc
000000b0: 65f7 01bc d7b6 75bd 032f 3dbd e47a 733d
000000c0: 6c37 3d3c 3ba7 6b3d 0459 bf3b 94c6 7abd
000000d0: 4039 a83d 3963 963d 7069 803d 0f2f 0cbd
000000e0: 98a6 fcbc 66c8 193d d5f3 083d 3577 f83c
000000f0: 75f5 15bc 4195 2d3d 7ece 023c 82dd 613d
00000100: 7e72 4f3b 6b71 37bd 720d 843d bb29 4abb
00000110: 08ec 143d f093 19bc 2840 45bd 4993 713d
00000120: 31b0 7d3d 76f0 38bd 15cc ebbc b402 813d
00000130: 40a3 543d 395b 94bd ffb3 083d 4e81 743d
00000140: 23fe c4bc 560e abbc ddea 28bd c835 d53c
00000150: 5d2c db3b a51e 523d 5541 0fbc 9ca3 51b9
00000160: df6f 533d 182d a23d adff 8cbd 53a5 a3bc
00000170: 3d41 8f3d e3cb a3bd c75d 843d e7a9 40bd
00000180: 985e dabc 811c 293d e2fd 94bc 5796 cbbc
00000190: 4560 31bd a608 abbc 75f4 2abc b4b7 2abd
000001a0: 53e5 dcbc 6307 84bd 06b8 aebb cc6a 8dbc
000001b0: e554 153d 5115 d43c b8fc aebd e9ce 6ebc
000001c0: 9a09 8e3d 0f37 8c3d da5e 293d d361 923c
000001d0: 32db 243b 3b3b 483d 7fa1 de3c 8d8e 923d
000001e0: 0775 aabd 05f7 e93c aa05 f9bb 8231 35bd
000001f0: b2d3 693d d236 ad3d fa58 acbd ea89 76bd
00000200: 88db debc 9922 d93c d86e a6bd f9c9 573d
00000210: 9da7 b23c b118 e3bc 393c 89bd 1449 abbd
00000220: 02e0 2fbd eae4 1b3d 1b5d 743d 615f 1a3d
00000230: 343e 1cbd 8781 97bd a2b4 67bd 6dc7 f03c
00000240: a0e3 cdbc d011 f5bc 15e7 3ebd 554d 813d
00000250: 4800 26bd a53d bebc d6e1 863d 3067 3c3d
00000260: 99ef 9f3d 56e2 303d 2375 543c ca53 b1bc
00000270: e2d6 93bd 1dda 18bd 5226 31bd b103 0bbd
00000280: 4fc5 20bd 9b5b 8d3d a880 8dbd 49e4 af3d
00000290: c2a5 623d f088 b83d 70cf 943d f6b0 01bc
000002a0: bade d8bc 675c b13d d0da 01bd c719 0a3d
000002b0: e4d4 fabc 0ce4 6fbc 1a8c d53c 058a 51bc
000002c0: d24c 0d3d 2f61 8bbd cc86 88bc 33f4 633c
000002d0: 6156 2cbd 7b1b 3fbd c60c 4dbd 2fc4 84bd
000002e0: bd8e 973a 9a5f 6c3d e3e6 2f3c f2a7 be3d
000002f0: d844 873c d391 29bd 1a9c e1bc 84d4 233d
00000300: 9390 383d 62b7 7ebd 3ceb 64bd c050 0fbc
00000310: 1997 b53c e434 d4bc be2e 94bd 11e2 7bbd
00000320: fa74 433d 308b 92bd 1eec 3c3d d77f 65bd
00000330: a236 15bd 26be 923d 0ad7 f9bc e20c 4d3d
00000340: 9be7 e63b 924a 803d df8e abbc 1952 8a3d
00000350: efd9 1cbc 138d 2a3d 9a6e b6bc c6bd 95bd
00000360: 5833 50bd 0330 923c 4cab 7f3d b79b 17bd
00000370: 117a 9a3d 5392 2ebd 94f0 0e3d 8179 a4bc
00000380: 7c4a 2e3c 109e 773b 33c2 053d 2c0e fa3c
00000390: d095 c3bc 4ed7 acbc ca87 92bd ce33 3c3d
000003a0: d4af 323c 5cda 803d faa3 96bc 3bac 8a3d
000003b0: e006 9c3d 11a9 983c 6827 943d d57c 903d
000003c0: 922e 8cbd e1b3 5ebd 68ac 89bc f756 20bd
000003d0: ecc0 05bc baad 223d afbb e5bc 888d e73c
000003e0: 8a95 c43a 7497 6f3c 0b19 15bd b16a a43d
000003f0: ea81 8f3c 740a a0bd 7faf a3bc f0b8 58bd

conv2.bias f4 [32]
0.026546601 -0.09160471 0.030355314 0.06619887 0.037537545 -0.0020197486 0.028907213 -0.026064318
0.0702711 -0.10932059 -0.07359493 -0.035021883 -0.054839343 -0.06616906 0.020876352 0.103062436
0.052254386 -0.011673105 -0.047354255 0.06425974 -0.046803083 -0.027966294 -0.044214778 -0.037863392
-0.05729533 0.029444158 0.0105495425 0.06801892 -0.019614937 -0.01121458 0.03870431 -0.09279138
00000000: 4278 d93c 409b bbbd b5ab f83c 4693 873d
00000010: f8c0 193d c25d 04bb d2ce ec3c d684 d5bc
00000020: 4bea 8f3d 79e3 dfbd f0b8 96bd 1b73 0fbd
00000030: 389f 60bd a583 87bd e204 ab3c 6612 d33d
00000040: b208 563d 8d40 3fbc 89f6 41bd 9c9a 833d
00000050: 97b4 3fbd 9219 e5bc 8e1a 35bd a516 1bbd
00000060: 82ae 6abd e034 f13c fdd7 2c3c 814d 8b3d
00000070: 81af a0bc 5cbd 37bc 6988 1e3d 6809 bebd

deconv2.weight f4 [32, 16, 3, 3]
0.051297184 0.08201822 -0.05923907 0.004326023 0.01467725 0.047129303 0.0691008 0.016261889
-0.06332165 0.038220704 -0.06080686 -0.018248307 0.04456067 -0.006499572 0.072442524 -0.058077395
0.069630034 0.040056933 0.0261219 0.08775967 -0.039329406 -0.033742074 -0.0770591 -0.06772638
-0.00046368802 0.0002893459 -0.047684163 -0.07079661 0.079001665 0.04737632 0.07819182 0.060998674
0.019368077 -0.013554135 0.038023565 -0.05285182 -0.069528505 -0.04025702 0.043576468 0.07111951
0.03896829 0.0018196128 -0.0057799015 -0.06911979 0.018039845 -0.04375774 0.049061347 -0.07154832
0.037707508 -0.009289512 -0.05195584 -0.0547463 -0.020619694 -4.0948016e-06 -0.020280674 0.011413385
-0.041950867 0.015699515 -0.076220125 -0.0047839745 -0.043596543 -0.08214696 -0.024821505 -0.0024209963
0.013026843 -0.037493467 -0.046625845 0.033677325 -0.05854699 0.031447005 0.028503904 -0.07907194
-0.060715083 0.003933902 0.052374728 0.03574411 -0.008071013 0.067167036 0.06523452 -0.005813079
-0.0053137764 0.07267323 0.081971854 0.00015419195 0.04397646 0.05860276 0.02560573 -0.027657023
0.07061441 -0.00900241 0.07474817 -0.056604274 -0.03940922 -0.053222653 0.06893779 -0.013586833
0.075694755 -0.0654985 -0.05218038 -0.076105304 -0.04821849 -0.03882664 -0.07062454 -0.05255434
-0.05332874 0.052175213 -0.053707033 0.028881283 -0.01918424 0.004146619 -0.07926771 -0.0648059
0.012779221 -0.009668821 0.07044023 0.046443246 -0.051089987 -0.056268845 0.02418021 0.031870674
0.02589158 0.024656408 -0.086756185 -0.004086117 -0.019757051 -0.042120576 0.014656361 0.04276548
0.021460142 -0.010794026 -0.039602354 0.025665728 -0.059777457 0.073535435 0.046152413 -0.052866794
0.057890363 -0.053177137 0.05747311 0.059981283 -0.056064676 0.0133359805 -0.043047566 -0.0693347
-0.081359 -0.06457669 0.047456358 -0.05345614 0.0851611 -0.03721919 -0.007033377 -0.07186841
-0.026300894 0.07046043 -0.08784716 0.045873612 -0.018140927 -0.032534547 -0.018279165 0.03660983
0.057336316 -0.013007176 0.012988742 0.042264786 -0.057608522 0.030848805 0.08148461 0.07684234
-0.014276556 0.036676604 -0.023138404 0.06626857 0.0007566459 0.0064646737 0.044350848 0.07944049
0.04558529 -0.008441505 0.020524817 0.07475772 0.014844003 0.01884955 0.030132258 -0.012051987
0.07873274 -0.020601239 -0.04614469 0.031055374 -0.028851518 -0.021650486 -0.053516045 0.035588283
-0.02941839 0.044486642 0.06734685 0.029232837 0.034004748 -0.06802365 0.03526501 0.03195981
-0.033614177 -0.0296962 -0.07781806 -0.032534953 -0.0060422737 -0.07786486 -0.03673121 -0.041200154
-0.079444304 -0.074005604 -0.019293016 -0.047941394 -0.037282422 0.048973985 -0.012912088 0.04388851
-0.057581045 0.028011175 -0.076572016 -0.0030703612 -0.045664158 0.06753855 -0.026913373 0.04554169
0.067512356 -0.0659407 -0.043343183 0.065888494 -0.019275699 -0.04922727 -0.06828813 0.066986084
-0.064799435 -0.056183424 -0.011723667 -0.07877084 0.034636494 0.013225981 -0.08364106 -0.0033795394
0.045878194 0.029735187 0.037659787 0.048693277 0.044104293 0.002206448 0.011012904 0.016218634
-0.04300018 -0.079880714 -0.04184932 0.023662664 -0.03818934 -0.061978184 0.03363782 0.06538289
00000000: ff1c 523d 2bf9 a73d aba4 72bd 50c1 8d3b
00000010: d978 703c a80a 413d b884 8d3d a737 853c
00000020: c8ae 81bd 508d 1c3d 9d10 79bd 797d 95bc
00000030: 4085 363d 5dfa d4bb bf5c 943d 90e2 6dbd
00000040: 319a 8e3d bd12 243d 98fd d53c 58bb b33d
00000050: df17 21bd 2135 0abd 29d1 9dbd 21b4 8abd
00000060: 271b f3b9 59b3 9739 7850 43bd d0fd 90bd
00000070: a0cb a13d ac0d 423d 0823 a03d bfd9 793d
00000080: cda9 9e3c 2a12 5ebc 99be 1b3d 267b 58bd
00000090: f664 8ebd 8ce4 24bd 3d7d 323d 1ba7 913d
000000a0: 379d 1f3d 1380 ee3a 5465 bdbb ad8e 8dbd
000000b0: 4cc8 933c 513b 33bd 8df4 483d ed87 92bd
000000c0: 3073 1a3d 0a33 18bc a6cf 54bd a83d 60bd
000000d0: a2ea a8bc 1466 89b6 a823 a6bc 35ff 3a3c
000000e0: acd4 2bbd 459c 803c 4c19 9cbd e3c2 9cbb
000000f0: 4a92 32bd aa3c a8bd 7856 cbbc 94a9 1ebb
00000100: 8a6e 553c c092 19bd befa 3ebd 3cf1 093d
00000110: f8ce 6fbd 93ce 003d 0581 e93c 78f0 a1bd
00000120: 61b0 78bd f6e7 803b e286 563d 6a68 123d
00000130: 483c 04bc df8e 893d ad99 853d a47b bebb
00000140: 301f aebb b4d5 943d dce0 a73d 96ae 2139
00000150: a920 343d 7309 703d 1cc3 d13c fb90 e2bc
00000160: 4a9e 903d d87e 13bc 9215 993d e2d9 67bd
00000170: 906b 21bd ffff 59bd 422f 8d3d 4f9b 5ebc
00000180: da05 9b3d 1424 86bd 18bb 55bd 19dd 9bbd
00000190: c080 45bd af08 1fbd 99a3 90bd 3843 57bd
000001a0: 3d6f 5abd adb5 553d e8fb 5bbd 7198 ec3c
000001b0: 4428 9dbc 5ce0 873b 1c57 a2bd f5b8 84bd
000001c0: f05f 513c f969 1ebc f842 903d 463b 3e3d
000001d0: bc43 51bd 297a 66bd 9315 c63c d38a 023d
000001e0: 941a d43c 3cfc c93c 3aad b1bd d5e4 85bb
000001f0: 8ad9 a1bc a086 2cbd 3c21 703c db2a 2f3d
00000200: 2ecd af3c 6dd9 30bc 1436 22bd ef40 d23c
00000210: 35d9 74bd bf99 963d 500a 3d3d da8a 58bd
00000220: 721e 6d3d 45d0 59bd ec68 6b3d efae 753d
00000230: 13a4 65bd 287f 5a3c a552 30bd 5aff 8dbd
00000240: 8c9f a6bd c940 84bd 9961 423d d3f4 5abd
00000250: f168 ae3d 2673 18bd 3e78 e6bb bf2f 93bd
00000260: f974 d7bc 8f4d 903d 36e9 b3bd f8e5 3b3d
00000270: 489c 94bc f242 05bd 30be 95bc 30f4 153d
00000280: 7cd9 6a3d 0d1c 55bc bcce 543c d71d 2d3d
00000290: eaf6 6bbd a2b6 fc3c 67e1 a63d 845f 9d3d
000002a0: 37e8 69bc 353a 163d c08c bdbc d1b7 873d
000002b0: a659 463a 9dd5 d33b 3ca9 353d b2b1 a23d
000002c0: a4b7 3a3d 3d4e 0abc a923 a83c 931a 993d
000002d0: 4334 733c 5f6a 9a3c edd7 f63c b375 45bc
000002e0: a13e a13d eec3 a8bc 3702 3dbd d767 fe3c
000002f0: 055a ecbc 5c5c b1bc a433 5bbd 05c5 113d
00000300: d6fe f0bc a037 363d 25ed 893d b479 ef3c
00000310: 9048 0b3d fc4f 8bbd 0b72 103d 4ae8 023d
00000320: 05af 09bd 7245 f3bc 135f 9fbd 5f43 05bd
00000330: 44fe c5bb 9d77 9fbd 7773 16bd 7ec1 28bd
00000340: b2b3 a2bd 4090 97bd 630c 9ebc 325e 44bd
00000350: 74b5 18bd f298 483d 398d 53bc 70c4 333d
00000360: 1ada 6bbd b177 e53c cad1 9cbd 1d38 49bb
00000370: 570a 3bbd a751 8a3d 6f79 dcbc ec89 3a3d
00000380: eb43 8a3d eb0b 87bd 9f88 31bd 8cf0 863d
00000390: 12e8 9dbc 89a2 49bd a6da 8bbd 0030 893d
000003a0: 91b5 84bd 9720 66bd a014 40bc 9b52 a1bd
000003b0: ffde 0d3d c9b1 583c 014c abbd 437b 5dbb
000003c0: c6ea 3b3d 3597 f33c 2641 1a3d 9a72 473d
000003d0: b4a6 343d 0e9a 103b 786f 343c f1dc 843c
000003e0: f520 30bd 8098 a3bd 316a 2bbd 34d8 c13c
000003f0: 6d6c 1cbd d6dc 7dbd d0c7 093d 77e7 853d

deconv2.bias f4 [16]
0.0398124 -0.06355381 0.043739248 -0.00062497635 -0.012904875 -0.010927854 0.05917742 0.10299613
0.0059563066 0.039838098 0.027595956 0.015867135 -0.045075808 -0.08229153 -0.016046802 0.01976953
00000000: 5412 233d 8028 82bd ed27 333d 74d5 23ba
00000010: f86e 53bc be0a 33bc 0664 723d a3ef d23d
00000020: 1f2d c33b 462d 233d ea10 e23c cbfb 813c
00000030: 69a1 38bd 7688 a8bd 9574 83bc b6f3 a13c

deconv1.weight f4 [16, 1, 3, 3]
0.32554027 0.21975987 -0.19491185 -0.28430605 -0.09942538 -0.11267085 0.27398264 -0.0021124
-0.26275548 0.027777933 -0.04737759 0.09842066 0.12622459 -0.13286036 -0.096512064 -0.2647181
0.049406234 0.14837255 0.21267878 0.06098352 0.22165692 0.20878409 0.21089125 -0.24176517
-0.021364413 -0.1274329 -0.2699355 -0.120203055 0.1543342 -0.15447493 -0.023209259 -0.2095035
0.32184473 0.303857 0.273498 -0.14313327 -0.14237918 0.23507434 0.033354495 0.24593413
-0.19949988 -0.13795042 -0.2741979 -0.11312006 0.04820794 0.0910029 0.0733583 -0.21170656
0.27738258 0.13171272 -0.077805534 0.27895662 -0.11094578 -0.17565218 -0.22787179 0.16125365
-0.25285777 0.18465455 -0.16689491 0.23653118 0.15966338 -0.2603306 0.09699007 -0.116038375
0.16005236 -0.060763873 -0.24111663 0.2264073 -0.11420461 0.14583343 -0.1862951 0.32660204
0.22798902 -0.3209394 0.24483442 -0.32466868 0.21795216 -0.13886848 -0.13897811 0.030366434
-0.2083188 -0.13121416 0.19372645 0.2956836 0.16251364 0.24580781 -0.14232047 0.11634879
0.13230565 0.27370688 0.06257955 -0.098338336 -0.12571946 0.06777295 -0.016751558 0.124800436
0.31361815 -0.28597555 -0.24469805 0.26074085 0.2541134 0.18720095 0.09356304 -0.25190595
0.07976356 0.223111 0.12083171 -0.10908396 -0.20375824 0.31244174 0.098640025 -0.031355236
-0.34719127 -0.016834233 0.07592827 0.12504146 0.07121236 -0.2737324 0.31008643 -0.034905076
0.2705596 -0.290565 -0.09726514 -0.018379493 -0.21993569 0.15148321 -0.045143362 0.17443082
-0.17225377 -0.22272022 -0.15803453 0.063143775 0.3166519 0.31174058 0.23326187 -0.05461217
-0.14212638 0.31717125 0.03939831 0.32645264 -0.22673994 -0.19796358 0.30811238 0.2129459
00000000: 37ad a63e bb08 613e f996 47be 9090 91be
00000010: 899f cbbd f9bf e6bd 7447 8c3e 3170 0abb
00000020: e387 86be 8c8e e33c 010f 42bd c590 c93d
00000030: 0541 013e 8c0c 08be 1ea8 c5bd 2189 87be
00000040: 315e 4a3d f9ee 173e 77c8 593e dbc9 793d
00000050: 08fa 623e 7fcb 553e e0f3 573e 4a91 77be
00000060: 6c04 afbc c57d 02be fc34 8abe 052d f6bd
00000070: c909 1e3e ad2e 1ebe 5821 bebc 1688 56be
00000080: d5c8 a43e 2593 9b3e ee07 8c3e 8791 12be
00000090: d9cb 11be 54b7 703e b99e 083d 28d6 7b3e
000000a0: b249 4cbe e042 0dbe ab63 8cbe 7dab e7bd
000000b0: b075 453d ba5f ba3d e03c 963d 9bc9 58be
000000c0: 1705 8e3e b3df 063e 8258 9fbd 67d3 8e3e
000000d0: 8b37 e3bd 2ade 33be 3957 69be ad1f 253e
000000e0: 9376 81be 1516 3d3e 80e6 2abe 3b35 723e
000000f0: cc7e 233e 0d4a 85be bba2 c63d 87a5 edbd
00000100: c4e4 233e 8ae3 78bd 47e7 76be 51d7 673e
00000110: 1be4 e9bd 5c55 153e 25c4 3ebe 6238 a73e
00000120: f475 693e 2b52 a4be e0b5 7a3e f93a a6be
00000130: da2e 5f3e 8a33 0ebe 4750 0ebe 07c3 f83c
00000140: 8651 55be 015d 06be 3a60 463e d763 973e
00000150: fa69 263e 0bb5 7b3e 75bc 11be 4648 ee3d
00000160: 227b 073e 4f23 8c3e b529 803d 9c65 c9bd
00000170: 9abc 00be 8bcc 8a3d 903a 89bc 5f97 ff3d
00000180: 8f92 a03e 636b 92be 2092 7abe d37f 853e
00000190: 271b 823e 9bb1 3f3e fb9d bf3d d1f9 80be
000001a0: 145b a33d 3677 643e 9e76 f73d 6967 dfbd
000001b0: 00a6 50be 5df8 9f3e c803 ca3d 596e 00bd
000001c0: 0ec3 b1be f2e7 89bc 4880 9b3d de0a 003e
000001d0: c9d7 913d a726 8cbe a6c3 9e3e a0f8 0ebd
000001e0: ca86 8a3e f0c4 94be f232 c7bd 9790 96bc
000001f0: d236 61be 6a1e 1b3e 3fe8 38bd fe9d 323e
00000200: 4b63 30be c510 64be ced3 21be 8651 813d
00000210: 3320 a23e 769c 9f3e 33dc 6e3e 03b1 5fbd
00000220: 9489 11be 4564 a23e 1f60 213d cd24 a73e
00000230: 842e 68be f7b6 4abe e8c0 9d3e 7d0e 5a3e
