Ex6_trained.pth (torch, 153143 bytes, 7 tensors)

conv1.weight f4 [32, 1, 3, 3]
0.21860942 0.34126884 0.09111951 -0.1465394 0.31746605 -0.3242218 -0.0013103896 -0.15580715
-0.11078947 0.20949233 -0.17390367 0.15638569 0.25792566 -0.15252492 0.009317086 0.26804432
-0.28215212 0.31774592 0.05563704 0.05502564 -0.20505908 -0.06708761 -0.109389104 -0.32425964
-0.17457448 0.0830726 0.27301705 -0.32012308 0.31219295 -0.22071178 0.14199406 0.31306303
0.25084764 0.3060965 -0.28542504 -0.31615135 -0.11775994 0.013414651 -0.06651518 -0.014715552
-0.22428188 0.17030177 0.04188636 0.18952224 -0.14753763 0.17070903 -0.33451658 -0.25693914
0.21410802 0.23982307 -0.18485142 -0.19974147 0.08751468 -0.20014694 -0.07238597 -0.16239706
0.32821196 0.2886757 -0.1782941 -0.05268617 0.08780981 0.20393361 -0.18208262 0.23327245
0.32865977 -0.33677208 -0.01572479 0.3479982 -0.30497152 -0.0014348453 -0.22576553 -0.37292477
-0.012381609 -0.18042652 -0.022213595 0.059941288 0.045335215 0.057966687 0.11580335 0.31854007
0.29930583 -0.11134102 -0.008092974 -0.19089805 0.16341338 0.026309507 -0.13911952 -0.26211604
0.04807109 -0.22738293 -0.17773403 0.0036010987 -0.012634483 -0.04815792 -0.13964197 -0.2628891
-0.12000907 -0.26784125 0.17943645 0.21267425 -0.11416641 0.30074093 -0.16944258 0.2865101
0.31243712 -0.035361674 -0.14518224 0.046239574 -0.27969187 -0.050724417 0.021091074 -0.016320392
0.10471728 -0.29911047 0.26480013 -0.16948865 0.0039497614 -0.12440569 -0.24770083 -0.09253031
0.033784166 -0.2853712 0.022415979 0.23686382 0.32142004 -0.067651115 0.29817382 0.023879383
0.18273549 -0.059389323 0.2145816 -0.17553534 -0.055183772 -0.18065812 -0.0071963836 -0.060564265
0.021990031 -0.19945404 -0.2440165 0.0641167 -0.10380357 -0.17257108 0.35064876 -0.31177068
0.3524154 0.33014363 0.28339624 0.07743225 0.033371054 -0.26887167 -0.05649295 -0.26325884
-0.25481716 -0.2780914 -0.2310336 -0.06602558 0.25652945 0.23447643 0.26485696 0.07012632
-0.2633736 0.102755345 -0.12742127 -0.01426161 0.2758067 0.21194032 -0.07940563 0.29652426
-0.114093825 0.12197932 0.21439373 -0.06527473 -0.21931499 0.14555764 -0.29674214 -0.091675326
0.047396567 0.17803425 0.0056183874 0.00068913214 -0.18003744 -0.045066323 0.059602477 -0.004632665
0.22191261 0.25295648 0.065587595 -0.26853672 -0.09702822 -0.04021825 -0.07316408 -0.19301428
-0.19105612 0.34006542 -0.092390895 -0.04361215 0.123765685 0.35863718 0.22474723 0.14959231
-0.01815203 -0.31712744 -0.038391404 -0.06846954 -0.13204066 0.33728164 0.28728712 0.07952161
-0.25491515 0.2792016 -0.050269663 0.22361071 -0.3225636 -0.21380499 0.29381338 -0.13119674
-0.084557354 -0.121092305 0.31859004 0.1312029 0.045170434 0.2010901 0.21830942 -0.3219428
-0.1558561 0.29209414 -0.16005878 -0.44308215 0.18273799 0.3604111 -0.41027728 -0.11528637
-0.16242972 -0.11388461 0.26856723 -0.13764489 -0.17709076 0.28081402 -0.22609492 -0.050822176
0.25021166 0.15545279 0.049066316 -0.02789859 0.24979071 0.16378859 -0.21710727 0.16954882
-0.24957183 0.04018646 0.23136568 -0.12416558 -0.17600548 -0.06207129 -0.03607577 0.02864882
00000000: 26db 5f3e caba ae3e de9c ba3d 6d0e 16be
00000010: e98a a23e 6600 a6be 61c1 abba e98b 1fbe
00000020: 97e5 e2bd 2885 563e ce13 32be 9223 203e
00000030: d50e 843e 7e2f 1cbe b1a6 183c 1b3d 893e
00000040: 3e76 90be 98af a23e aae3 633d 9162 613d
00000050: 02fb 51be 3b65 89bd 6507 e0bd 5c05 a6be
00000060: a7c3 32be f821 aa3d e4c8 8b3e 2ce7 a3be
00000070: c1d7 9f3e 4502 62be e466 113e cc49 a03e
00000080: 1a6f 803e aeb8 9c3e 3b23 92be 97de a1be
00000090: 202c f1bd 20c9 5b3c 1c39 88bd 8019 71bc
000000a0: 26aa 65be 9663 2e3e 0891 2b3d 1e12 423e
000000b0: 1b14 17be 59ce 2e3e c245 abbe 878d 83be
000000c0: 223f 5b3e 2e94 753e b149 3dbe 0789 4cbe
000000d0: e63a b33d 52f3 4cbe 183f 94bd 6a4b 26be
000000e0: 660b a83e 4dcd 933e bb92 36be 74cd 57bd
000000f0: a1d5 b33d f9d3 503e de73 3abe f9de 6e3e
00000100: 1846 a83e 646d acbe 46d1 80bc d22c b23e
00000110: 3a25 9cbe 6b11 bcba 142f 67be ffef bebe
00000120: 3bdc 4abc bbc1 38be 49f9 b5bc ff84 753d
00000130: 6bb1 393d 7a6e 6d3d 4f2a ed3d af17 a33e
00000140: 9d3e 993e c306 e4bd 6598 04bc c77a 43be
00000150: d655 273e 0987 d73c 5975 0ebe 1334 86be
00000160: 31e6 443d 12d7 68be e9ff 35be 6900 6c3b
00000170: dd00 4fbc 3d41 45bd 4efe 0ebe 6699 86be
00000180: 51c7 f5bd 7d22 89be 30be 373e 47c7 593e
00000190: 14d0 e9bd b7fa 993e 5b82 2dbe 74b1 923e
000001a0: c2f7 9f3e 67d7 10bd a7aa 14be b565 3d3d
000001b0: c633 8fbe 68c4 4fbd 30c7 ac3c 58b2 85bc
000001c0: 0376 d63d 0225 99be e293 873e 6f8e 2dbe
000001d0: 006d 813b 69c8 febd 49a5 7dbe 8880 bdbd
000001e0: 4461 0a3d 2d1c 92be b7a1 b73c 6e8c 723e
000001f0: 2b91 a43e ab8c 8abd 3daa 983e b29e c33c
00000200: 031f 3b3e 3842 73bd 47bb 5b3e 89bf 33be
00000210: 6108 62bd 71fe 38be a4cf ebbb 3c12 78bd
00000220: 7024 b43c ae3d 4cbe 76df 79be 9e4f 833d
00000230: f796 d4bd 79b6 30be 3c88 b33e 68a0 9fbe
00000240: cb6f b43e 9608 a93e 5019 913e cd94 9e3d
00000250: 16b0 083d 8ca9 89be 2765 67bd ddc9 86be
00000260: 6577 82be ff61 8ebe 1294 6cbe 6b38 87bd
00000270: d457 833e 971a 703e 559b 873e 639e 8f3d
00000280: e8d8 86be 6571 d23d b97a 02be 87a9 69bc
00000290: 8936 8d3e e206 593e 6b9f a2bd 07d2 973e
000002a0: 06aa e9bd 4bd0 f93d 088a 5b3e c2ae 85bd
000002b0: 1c94 60be 100d 153e 96ee 97be 46c0 bbbd
000002c0: e722 423d 9c4e 363e 731a b83b e0a6 343a
000002d0: bc5b 38be 7797 38bd ba21 743d 9ccd 97bb
000002e0: 0f3d 633e 8383 813e ca52 863d a57d 89be
000002f0: bbb6 c6bd e4bb 24bd 0dd7 95bd 89a5 45be
00000300: 37a4 43be 0e1d ae3e 7037 bdbd a7a2 32bd
00000310: dd78 fd3d 4b9f b73e 2324 663e ba2e 193e
00000320: 91b3 94bc 875e a2be 4e40 1dbd c239 8cbd
00000330: ab35 07be 2eb0 ac3e 4c17 933e 3adc a23d
00000340: 3d84 82be 83f3 8e3e 90e7 4dbd 35fa 643e
00000350: 0e27 a5be b2ef 5abe b56e 963e 7058 06be
00000360: 682c adbd 3eff f7bd 3c1e a33e 0e5a 063e
00000370: a204 393d 90ea 4d3e 818c 5f3e b0d5 a4be
00000380: be98 1fbe 5d8d 953e 73e6 23be aadb e2be
00000390: ab1f 3b3e ce87 b83e dd0f d2be 431b ecbd
000003a0: fa53 26be 563c e9bd a581 893e c8f2 0cbe
000003b0: 4857 35be dbc6 8f3e 6d85 67be ea2a 50bd
000003c0: be1b 803e 042f 1f3e c3f9 483d 958b e4bc
000003d0: 23c9 7f3e 32b8 273e 5e51 5ebe 359e 2d3e
000003e0: c28f 7fbe 8f9a 243d 20eb 6c3e 864a febd
000003f0: c83a 34be 773e 7ebd 30c4 13bd eeb0 ea3c

conv1.bias f4 [32]
-0.221199 0.29345554 0.28699553 0.10938306 -0.14341864 0.12144019 -0.057946432 -0.030544102
0.0509253 0.2588499 0.18679716 0.0052425712 -0.15506817 0.32231182 -0.1703747 0.1612157
0.02525575 -0.10627091 -0.081056975 -0.20926635 0.13979165 -0.032151014 -0.1054584 0.060492925
0.032999065 -0.08178768 -0.14531708 -0.22007227 0.16893291 -0.025000785 0.026625065 -0.061723456
00000000: fe81 62be ce3f 963e 14f1 923e 3a04 e03d
00000010: 56dc 12be a2b5 f83d 3d59 6dbd a037 fabc
00000020: 0c97 503d f987 843e c147 3f3e e0c9 ab3b
00000030: 31ca 1ebe 0e06 a53e b576 2ebe ba15 253e
00000040: 26e5 ce3c 90a4 d9bd 3301 a6bd eb49 56be
00000050: 8b25 0f3e c8b0 03bd 93fa d7bd 6ec7 773d
00000060: 072a 073d 4d80 a7bd 00ce 14be a05a 61be
00000070: c0fc 2c3e 72ce ccbc cf1c da3c bcd1 7cbd

conv2.weight f4 [64, 32, 3, 3]
0.024165466 0.1229243 0.075484805 0.08447494 0.024961744 -0.025576841 0.020738889 0.06577421
-0.047616277 0.0032906334 -0.034755256 -0.03071163 -0.03102747 -0.018591106 0.048072364 -0.036137972
-0.012631454 -0.019309215 0.06310049 0.063298225 -0.048571143 0.0062247724 0.038185075 0.064313896
-0.043364156 -0.015479674 -0.004394926 0.05729665 0.016218115 0.016833324 0.054881588 -0.052730322
0.048972342 -0.01399094 0.0084647415 -0.029485632 -0.026353154 0.005185943 0.028148156 -0.008524571
-0.030841054 0.025225881 -0.02436021 -0.03210099 -0.006273523 -0.017884722 0.068767086 -0.045045163
0.053796995 -0.050567523 0.028203757 0.053020973 0.01779919 -0.017312692 -0.03231587 -0.006551767
-0.04337952 -0.036568604 0.03477075 0.014487707 0.030143524 -0.04237516 -0.038586583 0.08044269
-0.028774394 -0.040670842 -0.07013016 0.033900052 -0.026165254 -0.03305403 0.029474447 -0.04026229
0.051506363 0.0042163325 -0.043886017 -0.053464685 -0.038604148 0.011124379 -0.025754638 -0.056261446
0.029717999 -0.03988549 0.00034622842 0.057879426 -0.028527917 0.035409007 -0.03564116 -0.039085347
-0.010998694 -0.028007599 0.030984899 0.044899836 0.029763976 -0.0036058938 0.009947701 0.027574105
-0.025276532 -0.038520195 -0.016332822 0.040825073 -0.039769985 0.043589413 -0.040213138 0.0089232195
0.03250867 -0.032667413 0.018202284 -0.061713714 0.032025408 -0.052700527 -0.018335577 -0.02829547
0.035097543 0.015730958 -0.054464053 -0.034819104 -0.02334506 0.038105197 0.026060248 0.038115077
-0.05360355 -0.048624538 -0.021135153 0.0014173522 -0.0062658824 0.04412138 0.0013537329 0.07798857
0.062385973 0.020751672 0.045559492 -0.025944853 0.062020767 0.019794855 -0.015389491 0.0090461
-0.005194399 0.060212236 0.06399022 -0.037510734 0.032777827 0.06705568 -0.018218828 0.03981976
0.053600166 0.08262512 -0.0065635745 0.14132081 0.10085505 0.07362356 0.041907266 0.013288274
0.0032203114 0.027637381 0.025712624 0.053815432 -0.05538917 -0.031613667 -0.042365152 -0.047201302
0.02698256 -0.02343063 0.031201968 -0.03755063 -0.05052073 -0.04776949 -0.0058630435 0.015636232
0.007839322 -0.042927798 -0.052029025 0.020292249 0.04529931 -0.021792632 -0.0038918108 0.05375505
-0.05302698 -0.02723323 -0.007634132 -0.030231295 -0.020517208 0.025110666 -0.022063533 -0.024998222
-0.019361721 -0.02762438 -0.0028731416 -0.029569227 -0.028825257 -0.044870596 -0.046857134 -0.039169665
-0.030943384 -0.0700035 -0.06949943 0.008131373 -0.0022922289 -0.050770316 -0.0580416 -0.052546516
-0.060898542 0.041239254 -0.010633343 -0.0076809805 0.007466119 0.020711323 0.027741205 0.055740777
-0.035932884 0.02679908 0.028966093 0.0035586546 -0.03866551 0.009396995 -0.013698594 -0.04113441
0.035968073 0.055507086 -0.006652194 0.05710077 -0.031063875 0.05200056 0.03648382 0.030299686
0.0342597 -0.017003689 0.10619081 -0.112192236 -0.04340351 0.073290214 -0.17546302 0.0018967583
0.14052309 -0.20894355 0.17112266 0.12423298 0.012764252 0.18099876 0.07398844 -0.05753
0.21891586 0.077400684 -0.106521204 0.13187724 -0.044028528 -0.15801992 0.029530974 -0.06981637
-0.109858215 0.09361113 -0.11662589 -0.09905676 0.0046917717 0.0557742 0.04091426 0.0101851765
00000000: a8f6 c53c bcbf fb3d c797 9a3d 3301 ad3d
00000010: 927c cc3c 8686 d1bc 9ae4 a93c a1b4 863d
00000020: 4909 43bd aba7 573b 875b 0ebd f596 fbbc
00000030: 522d febc 604c 98bc 87e7 443d 6905 14bd
00000040: 28f4 4ebc 5c2e 9ebc d43a 813d 80a2 813d
00000050: 89f2 46bd 2df9 cb3b f467 1c3d 01b7 833d
00000060: 9d9e 31bd 759e 7dbc 5003 90bb e4af 6a3d
00000070: dadb 843c 0ae6 893c 84cb 603d c0fb 57bd
00000080: 3997 483d 413a 65bc b3af 0a3c da8b f1bc
00000090: 92e2 d7bc d8ee a93b f696 e63c a4aa 0bbc
000000a0: 61a6 fcbc 82a6 ce3c 108f c7bc 547c 03bd
000000b0: 2092 cdbb fb82 92bc c2d5 8c3d 4781 38bd
000000c0: 3d5a 5c3d e41f 4fbd 910b e73c 852c 593d
000000d0: 9bcf 913c 59d3 8dbc a55d 04bd 34b0 d6bb
000000e0: b9ae 31bd f6c8 15bd c66b 0e3d d95d 6d3c
000000f0: 8def f63c 9391 2dbd f70c 1ebd 23bf a43d
00000100: 47b8 ebbc 7896 26bd 67a0 8fbd c8da 0a3d
00000110: 8458 d6bc aa63 07bd 6574 f13c 12ea 24bd
00000120: 56f8 523d 2929 8a3b d3c1 33bd c9fd 5abd
00000130: 621f 1ebd 0743 363c 64fb d2bc 6772 66bd
00000140: 2973 f33c f85e 23bd fe85 b539 fa12 6d3d
00000150: 61b3 e9bc 0909 113d 77fc 11bd f517 20bd
00000160: de33 34bc 3170 e5bc 0bd4 fd3c e4e8 373d
00000170: 95d3 f33c dc50 6cbb affb 223c 17e3 e13c
00000180: bb10 cfbc 5ac7 1dbd 69cc 85bc 3138 273d
00000190: dae5 22bd d08a 323d 88b6 24bd b232 123c
000001a0: d027 053d 44ce 05bd f51c 953c 85c7 7cbd
000001b0: 132d 033d 82dc 57bd 7e34 96bc e7cb e7bc
000001c0: 71c2 0f3d 36de 803c b315 5fbd 7a9e 0ebd
000001d0: 243e bfbc 3214 1c3d 4d7c d53c 8e1e 1c3d
000001e0: 658f 5bbd 862a 47bd a123 adbc 73c6 b93a
000001f0: 0852 cdbb 9fb8 343d bd6f b13a 79b8 9f3d
00000200: 6f88 7f3d 69ff a93c 979c 3a3d 4d8a d4bc
00000210: 7d09 7e3d d228 a23c 3424 7cbc 1836 143c
00000220: c735 aabb 1ba1 763d 4e0d 833d dba4 19bd
00000230: 0b42 063d 7d54 893d a73f 95bc 0b1a 233d
00000240: d98b 5b3d 5c37 a93d 4113 d7bb 67b6 103e
00000250: 188d ce3d f3c7 963d f4a6 2b3d 10b7 593c
00000260: dc0b 533b ca67 e23c 48a3 d23c 926d 5c3d
00000270: c1df 62bd 557d 01bd 1587 2dbd 2756 41bd
00000280: 880a dd3c 98f1 bfbc 459b ff3c b0ce 19bd
00000290: d3ee 4ebd f1a9 43bd c61e c0bb 8e17 803c
000002a0: 8070 003c 0fd5 2fbd 631c 55bd ee3b a63c
000002b0: c58b 393d 7686 b2bc c00d 7fbb 412e 5c3d
000002c0: d232 59bd 3918 dfbc be27 fabb 9fa7 f7bc
000002d0: b413 a8bc e2b4 cd3c 95be b4bc 12c9 ccbc
000002e0: 799c 9ebc 864c e2bc 514b 3cbb 2a3b f2bc
000002f0: f222 ecbc 3bca 37bd 44ed 3fbd 5f70 20bd
00000300: fb7c fdbc ff5d 8fbd b855 8ebd 7339 053c
00000310: 3839 16bb 89f4 4fbd 07bd 6dbd 043b 57bd
00000320: c070 79bd 7eea 283d 7937 2ebc bcb0 fbbb
00000330: 58a6 f43b cbaa a93c 8641 e33c 7150 643d
00000340: 5c2e 13bd bf89 db3c 4d4a ed3c 5138 693b
00000350: ba5f 1ebd dbf5 193c 1170 60bc 8e7c 28bd
00000360: 4253 133d 665b 633d a6fa d9bb 7fe2 693d
00000370: ab79 febc 8afe 543d 0f70 153d 0c37 f83c
00000380: e653 0c3d 524b 8bbc 917a d93d 0bc5 e5bd
00000390: e1c7 31bd 2e19 963d 94ac 33be a69c f83a
000003a0: 49e5 0f3e 4cf5 55be c73a 2f3e dc6d fe3d
000003b0: 2721 513c bd57 393e 4087 973d 94a4 6bbd
000003c0: 7b2b 603e 4084 9e3d ca27 dabd d40a 073e
000003d0: 4257 34bd f9cf 21be f1ea f13c e3fb 8ebd
000003e0: 58fd e0bd 31b7 bf3d 8ed9 eebd 45de cabd
000003f0: 6fbd 993b 7d73 643d b695 273d badf 263c

conv2.bias f4 [64]
0.044775274 0.00942912 0.002835287 -0.015517111 0.013999451 0.0046250904 -0.034347083 -0.02581083
0.016205195 0.0054932083 -0.054810636 -0.046671763 -0.052865025 -0.02820009 -0.009335918 0.043623414
-0.047031716 0.046880607 -0.034148876 -0.059021298 0.001441403 0.020706728 -0.027058193 0.0006037762
0.018159691 0.02649873 0.050778296 -0.014172474 -0.042678293 -0.0046449727 0.03655096 0.0368796
0.053398192 -0.021781038 -0.002054653 0.028891832 -0.047344502 0.05673025 -0.0021243119 0.0058433036
-0.015587854 -0.015114208 -0.058638435 0.04633887 0.04221432 0.040721804 -0.03184853 -0.045488115
0.023979317 -0.0015138986 -0.03293752 -0.041038457 -0.031996675 0.03679884 0.0015274826 0.00059691776
-0.00897265 -0.015146951 0.05091391 0.055176802 -0.0612433 0.044960085 0.03594851 -0.036243685
00000000: 4766 373d 997c 1a3c 39d0 393b 7b3b 7ebc
00000010: f45d 653c 128e 973b 87af 0cbd 3c71 d3bc
00000020: c2c0 843c 5f00 b43b 1e81 60bd e42a 3fbd
00000030: ff88 58bd e003 e7bc aef5 18bc 77ae 323d
00000040: 54a4 40bd e105 403d b1df 0bbd 51c0 71bd
00000050: 75ed bc3a 28a1 a93c 25a9 ddbc bc46 1e3a
00000060: a2c3 943c dd13 d93c e7fc 4f3d aa33 68bc
00000070: 6fcf 2ebd db34 98bb 76b6 153d 100f 173d
00000080: 10b8 5a3d 266e b2bc 5ba7 06bb 90ae ec3c
00000090: 4fec 41bd fb5d 683d 0a38 0bbb 2f79 bf3b
000000a0: 3364 7fbc 95a1 77bc db2e 70bd d4cd 3d3d
000000b0: ece8 2c3d e8cb 263d 9b73 02bd bf51 3abd
000000c0: 4670 c43c 026e c6ba 7ee9 06bd f117 28bd
000000d0: f20e 03bd 61ba 163d d035 c83a 797a 1c3a
000000e0: 0602 13bc eb2a 78bc 1b8b 503d 1201 623d
000000f0: 41da 7abd 1128 383d bf3e 133d 4274 14bd

conv3.weight f4 [32, 64, 3, 3]
-0.007932187 -0.026993684 -0.00017511885 0.037069876 0.053783137 -0.005559113 0.00013672771 0.014819275
-0.024492834 0.009073961 -0.030602945 -0.038375907 -9.0942674e-05 -0.01330807 0.03621281 -0.029584257
-0.022719502 0.028418826 -0.03828249 -0.020568943 0.0218057 0.0038763902 -0.011041527 0.0113786515
0.030006826 -0.015451045 0.021973837 0.018381616 0.044778332 0.039724804 0.03526127 -0.014497147
-0.035024475 0.024302699 0.023827178 0.01823066 0.010809853 0.015946487 0.0378326 0.030856933
-0.042706996 0.024523143 -0.01040013 -0.00545062 0.02797063 0.057350256 0.063568056 0.082647644
-0.058425624 -0.054253064 -0.054281212 0.08058409 0.06866681 0.08826373 -0.033885885 -0.013219202
0.03907782 -0.010882992 -0.0239735 -0.032674782 0.0023326706 -0.025969574 0.0047570486 0.031218687
-0.03317122 -0.0501679 -0.00034487405 -0.049262416 -0.014656088 -0.03085335 0.007656685 0.023191046
0.021602698 0.07281665 0.0057939645 0.06336797 -0.07702285 -0.06554861 0.058369808 0.079546385
0.08764323 -0.03509159 0.034871116 -0.033629127 -0.03586387 -0.013128654 0.024667619 0.049003173
0.039727595 0.018926546 -0.023039993 0.034861725 -0.025978561 0.011609132 0.022892606 0.04571477
-0.035383537 -0.034172405 0.02984315 0.011012963 0.0076018744 0.046038006 0.018900555 0.005632968
-0.015930736 -0.00066534465 0.012955697 -0.023358162 0.2714553 0.14228797 -0.17916842 0.17227125
0.1126622 -0.1358748 0.09870512 0.0685706 -0.12822542 -0.0020943875 -0.031736117 -0.027368205
0.012231764 -0.02241701 0.030890862 0.048431177 -0.023650855 -0.010309915 -0.005446225 -0.017835196
-0.0019233376 -0.00079749076 -0.005228754 0.016204387 -0.02286314 -0.039391797 0.039447445 0.024728812
0.04255973 0.057732586 0.017441249 0.013311816 0.06361876 0.025547134 0.04124452 0.05132493
0.054225493 0.030878618 0.021522269 -0.022073677 -0.0035008104 0.015996184 -0.026769115 0.046594456
-0.035277687 0.040359918 -0.037820667 0.009283306 0.03112786 0.008097649 0.041415595 -0.022432284
-0.029725604 0.035682816 -0.023985736 0.025541961 0.032374136 0.0101846745 0.043113265 -0.008227546
0.022051152 -0.02033196 0.032105807 0.029465476 -0.013932898 0.040730253 0.0021384624 0.011619851
-0.030881314 0.024287038 0.03258385 -0.0039507435 0.0011014465 -0.013199608 -0.006746936 -0.011476816
0.005493228 0.03810613 0.003596483 0.030669386 -0.020077728 0.00958263 -0.033157535 0.041478585
-0.0945697 -0.13399878 -0.10726971 -0.033953402 0.048586305 0.031787064 -0.019904654 0.019595409
0.000333441 0.003492242 -0.018653508 -0.03669837 0.008018606 0.00016570139 0.008991517 -0.01467108
0.036973044 0.043192063 0.0077706156 -0.048051674 -0.023933144 0.032749176 0.0057013715 -0.03974201
0.019671543 -0.020226216 -0.005229853 -0.040176127 -0.005477048 0.01649181 0.0033574165 0.041127346
0.020148579 0.011362516 -0.012296669 0.0029540823 -0.0032330535 0.00222387 0.0055298 0.04094675
-0.022738101 0.043228574 0.020723945 0.027249854 -0.032614905 0.035343703 -0.02697795 0.033147614
0.030861156 0.03072513 -0.01163509 0.0046961904 0.0192645 0.021817971 -0.014266998 -0.014401343
0.030604932 -0.028246796 -0.043585252 -0.0134324 -0.024293402 -0.028358778 -0.039064318 -0.0019967463
00000000: 01f6 01bc dc21 ddbc 1ca0 37b9 95d6 173d
00000010: b54b 5c3d 3829 b6bb 915e 0f39 8bcc 723c
00000020: 32a5 c8bc f3aa 143c 07b3 fabc 0e30 1dbd
00000030: 7ab8 beb8 170a 5abc e253 143d af5a f2bc
00000040: 401e babc 99ce e83c 1ace 1cbd 3380 a8bc
00000050: dea1 b23c 090b 7e3b 85e7 34bc 866d 3a3c
00000060: e0d0 f53c 6126 7dbc 7a02 b43c 0b95 963c
00000070: 7c69 373d 7ab6 223d 1f6e 103d 7185 6dbc
00000080: d375 0fbd 7416 c73c 3731 c33c 7758 953c
00000090: cf1b 313c 35a2 823c 5bf6 1a3d aec7 fc3c
000000a0: 88ed 2ebd c2e4 c83c 4f65 2abc 1d9b b2bb
000000b0: aa22 e53c 1ae8 6a3d f82f 823d 2b43 a93d
000000c0: b54f 6fbd 7638 5ebd fa55 5ebd 4509 a53d
000000d0: 2fa1 8c3d 9dc3 b43d edcb 0abd 5a95 58bc
000000e0: 1010 203d 944e 32bc 1364 c4bc fed5 05bd
000000f0: b8df 183b 25be d4bc 04e1 9b3b 55be ff3c
00000100: 8cde 07bd db7c 4dbd 36d0 b4b9 63c7 49bd
00000110: 1720 70bc 2ac0 fcbc eee4 fa3b 26fb bd3c
00000120: 24f8 b03c e520 953d 4cdb bd3b 11c7 813d
00000130: 28be 9dbd 5a3e 86bd 2e15 6f3d 37e9 a23d
00000140: 4b7e b33d 33bc 0fbd 04d5 0e3d b2be 09bd
00000150: fee5 12bd 9119 57bc bf13 ca3c 8db7 483d
00000160: 67b9 223d d80b 9b3c 5ebe bcbc 2bcb 0e3d
00000170: fed0 d4bc 3b34 3e3c 4689 bb3c 693f 3b3d
00000180: 54ee 10bd 5df8 0bbd 9f79 f43c b76f 343c
00000190: 2519 f93b 5992 3c3d 56d5 9a3c c394 b83b
000001a0: 2d81 82bc 866a 2eba 2244 543c 9e59 bfbc
000001b0: 30fc 8a3e f0b3 113e ed77 37be e067 303e
000001c0: 71bb e63d c322 0bbe e925 ca3d be6e 8c3d
000001d0: 864d 03be fe41 09bb bbfd 01bd 4933 e0bc
000001e0: bd67 483c e1a3 b7bc d50e fd3c c55f 463d
000001f0: 70bf c1bc ebea 28bc 3f76 b2bb 1e1b 92bc
00000200: 8018 fcba b30e 51ba f855 abbb 10bf 843c
00000210: 7b4b bbbc 4b59 21bd a593 213d 1494 ca3c
00000220: 1d53 2e3d 0179 6c3d f3e0 8e3c ce19 5a3c
00000230: 8d4a 823d 3948 d13c 04f0 283d 173a 523d
00000240: 8d1b 5e3d 28f5 fc3c 784f b03c dbd3 b4bc
00000250: da6d 65bb 6e0a 833c e74a dbbc d4d9 3e3d
00000260: 567f 10bd 7150 253d d8e9 1abd 0219 183c
00000270: dbff fe3c 00ac 043c 66a3 293d e9c3 b7bc
00000280: 1c83 f3bc 2528 123d bc7d c4bc 603d d13c
00000290: be9a 043d 9fdd 263c 8997 303d d4cc 06bc
000002a0: 9ea4 b43c 368f a6bc 6181 033d 9561 f13c
000002b0: cf46 64bc c4d4 263d 7225 0c3b 3061 3e3c
000002c0: cffa fcbc 9cf5 c63c a576 053d 3d75 81bb
000002d0: 695e 903a 2b43 58bc 6715 ddbb 4109 3cbc
000002e0: 8900 b43b 2c15 1c3d f9b2 6b3b 5d3e fb3c
000002f0: 0c7a a4bc 7700 1d3c 32d0 07bd 73e5 293d
00000300: c2ad c1bd fa36 09be 39b0 dbbd b912 0bbd
00000310: 6f02 473d 2733 023d 160f a3bc 8d86 a03c
00000320: b2d1 ae39 19de 643b 3ecf 98bc 0851 16bd
00000330: 7960 033c 21c0 2d39 2851 133c f85e 70bc
00000340: 0c71 173d 29ea 303d a6a0 fe3b d5d1 44bd
00000350: 710f c4bc 0024 063d 92d2 ba3b 85c8 22bd
00000360: 3726 a13c 73b1 a5bc 305f abbb b98f 24bd
00000370: cf78 b3bb d519 873c 1a08 5c3b 2675 283d
00000380: a20e a53c d929 3a3c f877 49bc 4799 413b
00000390: a3e1 53bb 59be 113b 5333 b53b c8b7 273d
000003a0: 4145 babc 7210 313d 43c5 a93c 163b df3c
000003b0: 3597 05bd 8fc4 103d dd00 ddbc cbc5 073d
000003c0: 89d0 fc3c 45b3 fb3c 1ba1 3ebc 80e2 993b
000003d0: 96d0 9d3c 9abb b23c 20c0 69bc 9cf3 6bbc
000003e0: 32b7 fa3c d365 e7bc 7386 32bd 9213 5cbc
000003f0: f502 c7bc ab50 e8bc e801 20bd d8db 02bb

conv3.bias f4 [32]
-0.032813616 0.022949276 -0.009403183 -0.013108465 0.02503962 0.019098913 0.029573489 0.038313963
0.03226838 0.03126634 -0.04583758 0.015709523 0.040073004 -0.0053767036 0.028405521 0.011460738
-0.03882639 0.011173777 -0.02083382 -0.0021465635 -0.032440122 0.0258245 0.01717037 -0.006700927
0.021909973 0.003126321 0.016117368 0.029912408 -0.019599827 -0.00841586 -0.017669331 -0.043215964
00000000: 9267 06bd 1f00 bc3c cf0f 1abc e3c4 56bc
00000010: e41f cd3c 5375 9c3c 1a44 f23c 1aef 1c3d
00000020: d92b 043d 2211 003d 30c0 3bbd 42b1 803c
00000030: 9723 243d 0f2f b0bb b2b2 e83c d2c5 3b3c
00000040: 6c08 1fbd 3812 373c b0ab aabc 5cad 0cbb
00000050: efdf 04bd e78d d33c e0a8 8c3c 7393 dbbb
00000060: 8b7c b33c f6e2 4c3b 9208 843c de0a f53c
00000070: d18f a0bc ade2 09bc 46bf 90bc 3903 31bd

conv4.weight f4 [1, 32, 3, 3]
0.04068803 0.017726252 0.027773269 -0.021616438 -0.028174376 -0.036374215 -0.039776858 0.045540962
-0.038836766 0.04328055 -0.04025969 0.01795374 -0.012076894 0.02636909 0.032199062 -0.05477177
0.057320725 0.022182543 0.01623843 -0.0025072228 0.041427683 0.04820147 0.04803584 0.03618859
-0.0017299068 0.034609836 0.015815893 0.041161463 -0.054440364 0.023224039 0.016941061 0.029051665
0.0142308865 0.023502411 0.008474871 -0.045762714 0.03419916 0.031917844 0.03366168 -0.016676059
-0.012436665 -0.01678428 -0.053789392 0.004050651 0.0013752058 -0.034139965 -0.033600837 0.06508781
0.059631225 0.014113821 -0.04070057 -0.002183642 -0.033813987 -0.048391793 -0.017140307 -0.023945564
-0.035891324 -0.012162761 -0.039293136 0.044807296 0.045129605 0.05385142 -0.002828443 0.052971456
0.047057897 -0.04838089 0.047738418 0.013281896 0.019074209 0.047753494 -0.05075939 0.04782941
-0.022071304 0.057609335 0.02632721 0.04987242 0.05121616 0.04843469 -0.0046379124 0.04947387
-0.00038514344 0.059993662 0.042589344 0.03616323 0.019463759 -4.2740703e-05 0.019897925 -0.027187813
0.017033137 0.055201672 -0.045685004 0.04712938 0.042595208 -0.043626953 -0.0074555874 -0.027707368
0.039333515 -0.022498889 0.007370744 0.051295143 0.010874191 -0.024396298 0.006942782 0.030364757
0.05261215 -0.046600822 -0.048356704 -0.043889225 -0.015245894 0.021256821 -0.0064607607 -0.020690722
0.051227573 0.03152971 0.03398042 0.030600421 -0.042723697 0.05024784 -0.034444965 -0.028119648
-0.036407877 -0.04549733 -0.007324468 0.05995646 0.022098258 -0.032989297 -0.00420133 0.05112098
-0.051386334 -0.014965467 0.03838258 0.047024664 -0.048921384 -0.03613139 0.043958236 0.057693146
-0.0019036925 0.03156802 -0.0005306391 -0.028297743 -0.04859762 -0.028431328 -0.030556805 -0.04454696
0.035934214 0.01608305 0.05617942 0.040724915 -0.012746196 -0.011475288 -0.047365736 0.03103912
-0.042509016 0.055493474 -0.0021900649 -0.012945117 0.0017669193 0.04687626 -0.029411172 -0.013812984
0.0109866755 0.005221938 0.05337182 0.032367 -0.025366627 0.05055185 -0.047546837 -0.00034000803
-0.02192263 -0.034288164 -0.0425281 0.04878592 -0.05128244 0.00029664434 0.017412698 -0.059981838
-0.0005216094 0.0077347592 0.034155384 0.044591002 -0.011891078 -0.020516712 -0.027385281 -0.0016402731
-0.046162397 0.05808875 -0.02747268 0.0431106 0.03282446 0.010971463 -0.011515144 -0.039125502
0.06138023 -0.047384527 0.060399394 -0.051770594 0.037390765 0.014249679 0.026659815 -0.0025447707
-0.015244647 0.04243222 -0.03195362 0.046996612 -0.008957321 0.0620298 -0.018148715 -0.0011804109
0.039715074 0.028509464 -0.03857597 0.06161215 0.12607281 -0.066025175 0.05890988 0.0752968
-0.032823484 -0.040489137 -0.0036987443 -0.034113515 0.045413442 -0.043317016 -0.048945058 -0.033156794
0.014639698 0.051027954 -0.04169142 -0.045815982 -0.047936186 -0.041771725 -0.031623695 0.032733984
-0.03463429 0.012987507 -0.0078534335 -0.0401013 -0.03298475 -0.009059017 -0.014772501 0.0017426581
0.04605327 0.017640516 -0.0064576264 -0.002760025 0.01206964 0.017559417 -0.021436926 0.059143234
0.05137991 0.013024114 -0.018127963 -0.017322756 0.0016701019 -0.037222587 0.0122263115 -0.02590611
00000000: 7ea8 263d a536 913c c484 e33c f514 b1bc
00000010: f3cd e6bc 21fd 14bd 0fed 22bd 2989 3a3d
00000020: 4d13 1fbd f246 313d 58e7 24bd b913 933c
00000030: 2ade 45bc fd03 d83c 2ae3 033d 5d58 60bd
00000040: 23c9 6a3d 2ab8 b53c 7506 853c 3850 24bb
00000050: 13b0 293d e86e 453d 3bc1 443d 7d3a 143d
00000060: 0abe e2ba 0bc3 0d3d 5590 813c ec98 283d
00000070: dcfc 5ebd 5740 be3c fbc7 8a3c c2fd ed3c
00000080: aa28 693c 2188 c03c 2fda 0a3c af71 3bbd
00000090: 6b14 0c3d 49bc 023d d4e0 093d 3b9c 88bc
000000a0: 27c3 4bbc 307f 89bc 4452 5cbd 53bb 843b
000000b0: 4040 b43a 59d6 0bbd 08a1 09bd c24c 853d
000000c0: df3f 743d a83d 673c a4b5 26bd 6f1b 0fbb
000000d0: 8980 0abd 7936 46bd d469 8cbc 7d29 c4bc
000000e0: c802 13bd 5146 47bc d7f1 20bd db87 373d
000000f0: d2d9 383d 4e93 5c3d 665d 39bb 99f8 583d
00000100: c8bf 403d 0a2b 46bd 5c89 433d 4f9c 593c
00000110: 8441 9c3c 2b99 433d 14e9 4fbd c5e8 433d
00000120: e1ce b4bc c4f7 6b3d 29ac d73c 0647 4c3d
00000130: 09c8 513d 7463 463d a1f9 97bb 1da5 4a3d
00000140: 14ed c9b9 eabb 753d 2a72 2e3d e51f 143d
00000150: 7672 9f3c 7b44 33b8 f900 a33c fab8 debc
00000160: 1489 8b3c 261b 623d 3320 3bbd bd0a 413d
00000170: 5078 2e3d 2db2 32bd 004e f4bb 90fa e2bc
00000180: 2e1c 213d 974f b8bc 4886 f13b db1a 523d
00000190: aa29 323c bfda c7bc 4780 e33b 83bf f83c
000001a0: d67f 573d 81e0 3ebd ae11 46bd 30c5 33bd
000001b0: eac9 79bc c922 ae3c cab4 d3bb 977f a9bc
000001c0: 01d4 513d 4c25 013d 0e2f 0b3d bcad fa3c
000001d0: 0bff 2ebd aed0 4d3d 2a16 0dbd 2d5b e6bc
000001e0: 6d20 15bd 695b 3abd 1702 f0bb e894 753d
000001f0: 6807 b53c c91f 07bd 4fab 89bb 3c64 513d
00000200: 7a7a 52bd b831 75bc 0d37 1d3d ef9c 403d
00000210: ca61 48bd 82fe 13bd 8d0d 343d a64f 6c3d
00000220: 5285 f9ba 784d 013d 961a 0bba abd0 e7bc
00000230: 4c0e 47bd d1e8 e8bc 4452 fabc e076 36bd
00000240: c12f 133d 9ac0 833c 641c 663d 2bcf 263d
00000250: 6cd5 50bc d902 3cbc 9302 42bd c145 fe3c
00000260: ef1d 2ebd 204d 633d 3187 0fbb c217 54bc
00000270: f997 e73a 5201 403d b3ef f0bc db4f 62bc
00000280: 7501 343c ca1c ab3b 699c 5a3d 4293 043d
00000290: accd cfbc 750f 4f3d 79c0 42bd 1b43 b2b9
000002a0: 1697 b3bc bf71 0cbd f231 2ebd bfd3 473d
000002b0: 890d 52bd ee86 9b39 13a5 8e3c 84af 75bd
000002c0: 9dbc 08ba dd73 fd3b 84e6 0b3d 0ea5 363d
000002d0: ccd2 42bc aa12 a8bc 1957 e0bc 6ffe d6ba
000002e0: c814 3dbd 78ee 6d3d 630e e1bc be94 303d
000002f0: f172 063d a7c1 333c 04aa 3cbc 1042 20bd
00000300: d669 7b3d 4716 42bd 5b65 773d 670d 54bd
00000310: 0f27 193d 7c77 693c af65 da3c 2bc6 26bb
00000320: afc4 79bc 68cd 2d3d cde1 02bd 857f 403d
00000330: bac1 12bc f612 7e3d 9dac 94bc 04b8 9aba
00000340: 46ac 223d ae8c e93c d601 1ebd 065d 7c3d
00000350: 3b19 013e 3538 87bd 7d4b 713d 3535 9a3d
00000360: eb71 06bd f0d7 25bd a266 72bb 9dba 0bbd
00000370: 7203 3a3d 2f6d 31bd 9d7a 48bd 6bcf 07bd
00000380: 58db 6f3c b002 513d 9fc4 2abd 8aa9 3bbd
00000390: bc58 44bd d418 2bbd d987 01bd 1214 063d
000003a0: afdc 0dbd 8dc9 543c b0ab 00bc 4341 24bd
000003b0: 041b 07bd 456c 14bc 5c08 72bc e769 e43a
000003c0: 5ba2 3c3d d882 903c 7f9a d3bb 89e1 34bb
000003d0: bdbf 453c c4d8 8f3c 7e9c afbc 2d40 723d
000003e0: be73 523d 1863 553c 1881 94bc 74e8 8dbc
000003f0: 52e7 da3a b676 18bd de50 483c 0d39 d4bc
