Ex6_trained.pth (torch, 44607 bytes, 15 tensors)

conv1.weight f4 [16, 1, 3, 3]
0	0xbd68d804	-0.056846634
1	0x3bd04c5b	0.0063567585
2	0xbe813683	-0.25236902
3	0xbe88d053	-0.2672144
4	0xbe4c876f	-0.19973539
5	0xbca8943e	-0.0205785
6	0xbe35b260	-0.17743826
7	0x3d9e950c	0.07743272
8	0x3e659382	0.22419551
9	0xbe231242	-0.15924934
10	0x3b3da14f	0.0028935259
11	0x3e6f5d0b	0.23375337
12	0x3e2c8077	0.1684588
13	0xbe3d6ec7	-0.1849929
14	0xbdc1d07a	-0.09463592
15	0x3e2178e8	0.15768778
16	0xbe5f15be	-0.21785638
17	0x3d81c3c3	0.06336167
18	0x3c4e9744	0.012609307
19	0xbe597843	-0.21237282
20	0x3cf33713	0.029689347
21	0xbe04bb15	-0.12961991
22	0xbe1ec452	-0.15504578
23	0xbe8a5509	-0.27018002
24	0xbdb2b3e4	-0.08725718
25	0xbde9baed	-0.114126064
26	0xbe95aba2	-0.29232508
27	0x3ea4d005	0.32189956
28	0x3d53d253	0.051714253
29	0x3daf1ac3	0.08550026
30	0xbdd58f42	-0.10427715
31	0x3e851a16	0.25996464
32	0xbe8b5b51	-0.27218106
33	0xbd9b316f	-0.07577788
34	0xbe391a80	-0.18076515
35	0xbd15a88e	-0.0365377
36	0xbe8b83ea	-0.2724908
37	0x3cfe1d25	0.031019757
38	0xbea23bad	-0.31686154
39	0xbe7548ad	-0.23953505
40	0x3e82625f	0.25465676
41	0x3d99daa3	0.07512405
42	0x3cb0b4b2	0.021570537
43	0x3df4d9a0	0.11955571
44	0xbd972165	-0.073794164
45	0xbe7cf724	-0.24703652
46	0x3e3677ec	0.17819184
47	0x3d9c6701	0.07636834
48	0x3e3ee707	0.18642817
49	0xbd344350	-0.044009507
50	0x3d66fca3	0.056393277
51	0xbe83e346	-0.25759333
52	0x3eab9e49	0.335192
53	0x3e1f933d	0.1558351
54	0x3de844d4	0.11341253
55	0x3e135b5f	0.14390324
56	0x3dc84d74	0.09780398
57	0xbe6e13ce	-0.23249742
58	0xbd26182f	-0.040550407
59	0xbe488bfd	-0.19584651
60	0xbdb21ebe	-0.0869727
61	0xbe8a997a	-0.27070218
62	0xbea10141	-0.3144627
63	0x3ea66dab	0.32505545
64	0xbe21e4d3	-0.15809946
65	0x3e665764	0.22494274
66	0xbdb255af	-0.08707749
67	0x3e97b4d4	0.29630148
68	0xbe187eb7	-0.14892088
69	0x3c8e9e5f	0.017409502
70	0xbe805820	-0.25067234
71	0x3ea58b1b	0.32332692
72	0xbe8c44f3	-0.27396354
73	0xbebc281c	-0.3674935
74	0x3d936b15	0.07198159
75	0xbe2d4bb5	-0.16923411
76	0x3e124537	0.14284216
77	0xbd9f9800	-0.077926636
78	0x3c01b523	0.0079167215
79	0xbd4462da	-0.047945835
80	0xbda2a856	-0.07942264
81	0xbe2a146c	-0.16609353
82	0x3e6255c6	0.22103032
83	0x3e934a10	0.28767443
84	0x3e52d4a5	0.2058893
85	0x3e0cc159	0.13745631
86	0x3eb1e495	0.34744707
87	0xbe91a08e	-0.28442806
88	0x3e5e3733	0.21700744
89	0xbdd21711	-0.10258306
90	0xbd6352b3	-0.05549879
91	0x3d817921	0.06321932
92	0x3e169ffd	0.14709468
93	0x3bc201b1	0.005920612
94	0x3d3df9fd	0.046380986
95	0x3d61a08d	0.055084754
96	0x3e2e24f4	0.17006284
97	0xbe05405c	-0.13012832
98	0x3dde5052	0.10855164
99	0x3e7d3dcc	0.24730605
100	0x3d861a20	0.06547952
101	0x3e963486	0.29336947
102	0x3d8642aa	0.06555684
103	0x3dac3163	0.08407857
104	0xbdb607c4	-0.088882
105	0xbd8119d8	-0.063037574
106	0x3e82c8fe	0.2554397
107	0x3e84f0f4	0.25965083
108	0x3e1c412d	0.15259238
109	0x3ea0449d	0.31302348
110	0xbc1fdadc	-0.00975677
111	0xbe2380df	-0.15967129
112	0xbce40f93	-0.027839458
113	0x3dbd9ec8	0.09258801
114	0x3e7cefe1	0.24700882
115	0xbccfb464	-0.025354572
116	0xbe3a420f	-0.18189262
117	0xbe3820f6	-0.17981324
118	0xbdc2f5ce	-0.0951954
119	0xbd295f2c	-0.04135053
120	0xbe997655	-0.29973093
121	0xbe882cbf	-0.2659664
122	0x3e990bf4	0.29891932
123	0x3e50ae65	0.20379026
124	0xbc989ef5	-0.018630484
125	0xbda03bfd	-0.07823942
126	0x3dddb26b	0.10825046
127	0xbe2f6c5a	-0.17131177
128	0x3d947318	0.07248515
129	0xbeb47ad7	-0.3524997
130	0xbe8180b7	-0.25293514
131	0x3d81266f	0.06306159
132	0x3d536efd	0.05161952
133	0xbe41aab4	-0.18912774
134	0x3e71bc94	0.23607093
135	0xbdb90527	-0.09034186
136	0x3e986959	0.29767874
137	0xbd4eeb74	-0.050517514
138	0x3e0c5093	0.13702612
139	0xbe173889	-0.1476766
140	0x3c721732	0.014776038
141	0x3e85bb05	0.26119247
142	0x3d9cc4d6	0.07654731
143	0xbe0b95d5	-0.13631375

conv1.bias f4 [16]
0	0x3dcbc6ff	0.09950065
1	0xbe7a3790	-0.24435258
2	0xbe61e0e8	-0.22058451
3	0xbe722534	-0.23647004
4	0x3e66a2de	0.22523066
5	0xbe72ef73	-0.23724155
6	0xbcc52d8d	-0.024069572
7	0xbdc0f4a0	-0.094216585
8	0xbe586b75	-0.21134742
9	0xbe79f069	-0.24408115
10	0x3df27b68	0.11839944
11	0xbe95b9a3	-0.29243192
12	0x3dd33637	0.10313075
13	0x3e52f3d2	0.20600823
14	0x3d8900d4	0.06689611
15	0x3e084dbc	0.13310903

bn1.weight f4 [16]
0	0x3f793d80	0.97359467
1	0x3f775f77	0.9663004
2	0x3f775101	0.9660798
3	0x3f79d31a	0.9758774
4	0x3f7b1dec	0.9809253
5	0x3f7967e5	0.97424155
6	0x3f75a46b	0.95954007
7	0x3f7c6c48	0.98602724
8	0x3f69bb3e	0.91301334
9	0x3f78532b	0.97001904
10	0x3f7cec4a	0.9879805
11	0x3f7825f6	0.96932924
12	0x3f7c0e0a	0.9845892
13	0x3f708de1	0.9396649
14	0x3f794554	0.9737141
15	0x3f7bfcd6	0.9843267

bn1.bias f4 [16]
0	0xbd4a62d9	-0.049410675
1	0xbb200aed	-0.0024420575
2	0xbd5dd2f0	-0.054156244
3	0x3b86ef24	0.0041178633
4	0xbcc83eca	-0.024444003
5	0x3d012497	0.031529035
6	0xbd2aacff	-0.04166889
7	0xbbb702fa	-0.0055850716
8	0x3c2b1430	0.010441825
9	0xbd4ed1cf	-0.050493058
10	0x3cb6d120	0.022316515
11	0xbcdb9716	-0.026805442
12	0xbd6763e3	-0.056491744
13	0xbc5cf46c	-0.013486009
14	0x3c674ca1	0.014117391
15	0x3d61c1ba	0.055116393

bn1.running_mean f4 [16]
0	0xbe5cb965	-0.21555097
1	0xbe84914e	-0.2589211
2	0xbf4c7aba	-0.79874766
3	0xbe5a219e	-0.21301886
4	0x3d1f8d27	0.038952973
5	0xbd0027fc	-0.031288132
6	0xbecaee1c	-0.39634788
7	0x3e264124	0.16235787
8	0xbf15b5f4	-0.58480763
9	0x3e284726	0.16433391
10	0x3e9fd92b	0.31220374
11	0x3e730ec4	0.23736101
12	0x3e95acb0	0.29233313
13	0xbc9e52a6	-0.01932652
14	0xbe0ed0e7	-0.13946877
15	0x3e9bb771	0.30413392

bn1.running_var f4 [16]
0	0x3cfa8432	0.030580614
1	0x393baf01	0.00017898904
2	0x3dcf1e6a	0.10113223
3	0x3a9b180e	0.001183273
4	0x3c389a54	0.011267263
5	0x3c5a40a0	0.013321072
6	0x3d32774f	0.043570813
7	0x3ca4d3d1	0.020120533
8	0x3d2f3758	0.04277739
9	0x3d5449bc	0.05182813
10	0x3c3b38bb	0.0114271
11	0x3dae8d09	0.08522994
12	0x3c3a7339	0.01138001
13	0x3c827b03	0.015927797
14	0x3c5da30a	0.013527641
15	0x3c1599e2	0.009130927

bn2.weight f4 [32]
0	0x3f800000	1.0
1	0x3f800000	1.0
2	0x3f800000	1.0
3	0x3f800000	1.0
4	0x3f800000	1.0
5	0x3f800000	1.0
6	0x3f800000	1.0
7	0x3f800000	1.0
8	0x3f800000	1.0
9	0x3f800000	1.0
10	0x3f800000	1.0
11	0x3f800000	1.0
12	0x3f800000	1.0
13	0x3f800000	1.0
14	0x3f800000	1.0
15	0x3f800000	1.0
16	0x3f800000	1.0
17	0x3f800000	1.0
18	0x3f800000	1.0
19	0x3f800000	1.0
20	0x3f800000	1.0
21	0x3f800000	1.0
22	0x3f800000	1.0
23	0x3f800000	1.0
24	0x3f800000	1.0
25	0x3f800000	1.0
26	0x3f800000	1.0
27	0x3f800000	1.0
28	0x3f800000	1.0
29	0x3f800000	1.0
30	0x3f800000	1.0
31	0x3f800000	1.0

bn2.bias f4 [32]
0	0x00000000	0.0
1	0x00000000	0.0
2	0x00000000	0.0
3	0x00000000	0.0
4	0x00000000	0.0
5	0x00000000	0.0
6	0x00000000	0.0
7	0x00000000	0.0
8	0x00000000	0.0
9	0x00000000	0.0
10	0x00000000	0.0
11	0x00000000	0.0
12	0x00000000	0.0
13	0x00000000	0.0
14	0x00000000	0.0
15	0x00000000	0.0
16	0x00000000	0.0
17	0x00000000	0.0
18	0x00000000	0.0
19	0x00000000	0.0
20	0x00000000	0.0
21	0x00000000	0.0
22	0x00000000	0.0
23	0x00000000	0.0
24	0x00000000	0.0
25	0x00000000	0.0
26	0x00000000	0.0
27	0x00000000	0.0
28	0x00000000	0.0
29	0x00000000	0.0
30	0x00000000	0.0
31	0x00000000	0.0

bn2.running_mean f4 [32]
0	0x00000000	0.0
1	0x00000000	0.0
2	0x00000000	0.0
3	0x00000000	0.0
4	0x00000000	0.0
5	0x00000000	0.0
6	0x00000000	0.0
7	0x00000000	0.0
8	0x00000000	0.0
9	0x00000000	0.0
10	0x00000000	0.0
11	0x00000000	0.0
12	0x00000000	0.0
13	0x00000000	0.0
14	0x00000000	0.0
15	0x00000000	0.0
16	0x00000000	0.0
17	0x00000000	0.0
18	0x00000000	0.0
19	0x00000000	0.0
20	0x00000000	0.0
21	0x00000000	0.0
22	0x00000000	0.0
23	0x00000000	0.0
24	0x00000000	0.0
25	0x00000000	0.0
26	0x00000000	0.0
27	0x00000000	0.0
28	0x00000000	0.0
29	0x00000000	0.0
30	0x00000000	0.0
31	0x00000000	0.0

bn2.running_var f4 [32]
0	0x3f800000	1.0
1	0x3f800000	1.0
2	0x3f800000	1.0
3	0x3f800000	1.0
4	0x3f800000	1.0
5	0x3f800000	1.0
6	0x3f800000	1.0
7	0x3f800000	1.0
8	0x3f800000	1.0
9	0x3f800000	1.0
10	0x3f800000	1.0
11	0x3f800000	1.0
12	0x3f800000	1.0
13	0x3f800000	1.0
14	0x3f800000	1.0
15	0x3f800000	1.0
16	0x3f800000	1.0
17	0x3f800000	1.0
18	0x3f800000	1.0
19	0x3f800000	1.0
20	0x3f800000	1.0
21	0x3f800000	1.0
22	0x3f800000	1.0
23	0x3f800000	1.0
24	0x3f800000	1.0
25	0x3f800000	1.0
26	0x3f800000	1.0
27	0x3f800000	1.0
28	0x3f800000	1.0
29	0x3f800000	1.0
30	0x3f800000	1.0
31	0x3f800000	1.0

conv2.weight f4 [32, 16, 3, 3]
0	0x3acb7e96	0.0015525396
1	0xbca4dee1	-0.020125808
2	0x3d8dfb9f	0.069327585
3	0x3d864ae6	0.065572545
4	0x3d96ceed	0.07363687
5	0x3c77538e	0.015095605
6	0x3d633e05	0.05547907
7	0x3da61c13	0.081108235
8	0x3c94db2a	0.018170912
9	0x3d822c14	0.063560635
10	0xbd19953b	-0.037495833
11	0xbc28f7f3	-0.010313022
12	0xbd9da3ff	-0.076972954
13	0xbda42b09	-0.08016021
14	0xbd342bd6	-0.043987118
15	0xbdaf0e9c	-0.085477084
16	0x3d611bd4	0.05495818
17	0xbda286ed	-0.07935891
18	0xbd240378	-0.04004237
19	0xbd2a529f	-0.0415827
20	0x3c1612a5	0.009159719
21	0xbcef27cb	-0.02919378
22	0x3c9b5de0	0.018965662
23	0xbcee523f	-0.029091952
24	0x3d726840	0.05918145
25	0x3d3c3260	0.04594648
26	0x3cdd4134	0.02700863
27	0x3d96c2c4	0.07361367
28	0x3c9bdef2	0.019027207
29	0x3d1687a1	0.03675044
30	0x3d826e91	0.06368745
31	0x3d21318a	0.039353885
32	0xbc602a66	-0.013681984
33	0x3d8c95e9	0.068645306
34	0xbb40482c	-0.0029339893
35	0x3d39b83e	0.045341723
36	0x3d16c38c	0.03680758
37	0x3d8de44d	0.069283105
38	0xbcc052a4	-0.023476906
39	0x3d826fad	0.06368957
40	0x3d0cd497	0.03438243
41	0xbd13de48	-0.036100656
42	0x3d7a6eda	0.061140873
43	0x3c76a746	0.0150545295
44	0x3d0f6db7	0.03501674
45	0x3c10e77e	0.008844255
46	0x3d799ef8	0.06094262
47	0xbd03ab64	-0.032145873
48	0x3c0d70e5	0.008632873
49	0x3ba7fa68	0.0051262863
50	0x3cbcc419	0.023042725
51	0x3d526a90	0.051371157
52	0x3d980001	0.07421876
53	0xbd8a651a	-0.06757565
54	0x3d928d8f	0.071559064
55	0x3c37d5eb	0.011220436
56	0x3c98bbcc	0.018644236
57	0xbd95787c	-0.07298371
58	0x3d40cedc	0.047072276
59	0xbd3af527	-0.04564395
60	0x3d125663	0.035726916
61	0x3d3b9792	0.045798846
62	0xbd0d620b	-0.03451733
63	0xbd5338ee	-0.051567964
64	0xbd7c36e6	-0.061575793
65	0x3cb86570	0.022509307
66	0x3ac8dafe	0.0015324054
67	0x3c0ec633	0.008714247
68	0xbd68874b	-0.05676965
69	0x3c89e6f3	0.016833758
70	0xbada842f	-0.0016671474
71	0x3d41b9e8	0.047296435
72	0xbd930191	-0.07178033
73	0x3da2ab13	0.07942786
74	0x3d95c347	0.07312637
75	0xbd36a7f0	-0.04459375
76	0x3d05a168	0.032624632
77	0xbd90a6d0	-0.07063067
78	0x3d30653a	0.043065287
79	0xbd338346	-0.043826364
80	0xbd9993ce	-0.07498895
81	0x3cffde1e	0.031233843
82	0xbd0114a7	-0.031513836
83	0x3d1264f8	0.035740823
84	0xbd7e3ef0	-0.06207174
85	0x3ccab4a5	0.024744341
86	0x3d41b37b	0.047290307
87	0xbdae8d8e	-0.08523093
88	0x3d8a306b	0.06747516
89	0xbd3e80b0	-0.046509445
90	0x3a892470	0.001046313
91	0xbc91869a	-0.017764378
92	0xbbd374a8	-0.0064531155
93	0xbc45932d	-0.012059015
94	0x3ce994f8	0.028513417
95	0xbd4322de	-0.047640674
96	0xbd61e383	-0.055148613
97	0x3d8dbba1	0.06920553
98	0xbd5931dc	-0.053026065
99	0x3d80b369	0.0628422
100	0xbcc59119	-0.02411704
101	0xbd221e1d	-0.0395795
102	0xbd0a174b	-0.03371362
103	0xbd287da6	-0.041135453
104	0xba69f270	-0.00089243706
105	0x3d0d5d26	0.03451266
106	0xbd8f392f	-0.06993329
107	0x3d03966f	0.032125887
108	0xbcb425f7	-0.02199076
109	0xbb99645f	-0.0046811546
110	0x3d59273f	0.053015944
111	0xbd4df99c	-0.050286874
112	0x3d1f6c9c	0.038921937
113	0xbd9b5865	-0.07585219
114	0x3d542b08	0.05179885
115	0xbd8bf908	-0.06834608
116	0xbc1149e8	-0.008867718
117	0xbcc2e30b	-0.023789903
118	0xbd421737	-0.04738542
119	0xbcc939e0	-0.02456373
120	0xbd8c30ac	-0.06845221
121	0xbc568b11	-0.013094679
122	0x3d722070	0.059112966
123	0xbdaf353e	-0.08555077
124	0xbc26b35b	-0.010174598
125	0x3b88dd6e	0.004176787
126	0xbcd73ef2	-0.026275132
127	0xbce2effa	-0.02770232
128	0xbd200989	-0.039071593
129	0xbc87c14d	-0.016571665
130	0x3cee4851	0.029087218
131	0x3d0be990	0.03415829
132	0xbce86af3	-0.02837131
133	0xbd7d1920	-0.06179154
134	0xbd935c55	-0.07195345
135	0xbd41c41f	-0.047306176
136	0x3cbbb875	0.022915104
137	0x3d3d2ddc	0.046186313
138	0x3d4c2934	0.04984398
139	0xbd631da3	-0.055448186
140	0x3d8ace03	0.06777575
141	0xbd1e930c	-0.038714454
142	0xbcde8998	-0.02716522
143	0x3d91063c	0.07081267
144	0x3d907d4c	0.070551485
145	0xbd52f011	-0.051498476
146	0x3b0937da	0.002093783
147	0x3cabaacb	0.020955464
148	0xbd8bf46f	-0.068337314
149	0xbd086137	-0.033295836
150	0xbc185672	-0.009297954
151	0x3d19510d	0.03743081
152	0xbbf5bb7a	-0.0074991556
153	0x3db3a05a	0.08770819
154	0x3d3d7297	0.04625186
155	0xbd3f46b8	-0.046698302
156	0x3d3e15dd	0.04640757
157	0xbcde3cd9	-0.027128624
158	0x3bab76b1	0.005232655
159	0x3d0f7829	0.035026703
160	0x3d570a42	0.052500017
161	0xbd7b4add	-0.061350692
162	0x3d22a11a	0.03970442
163	0x3d3e4f6c	0.04646246
164	0xbd70b4e2	-0.058766253
165	0x3d7f7924	0.062371388
166	0x3bff709e	0.0077954074
167	0xbd79d1fc	-0.060991272
168	0x3cd0b6d3	0.025477802
169	0x3c83c722	0.016086165
170	0xbcfd1ecf	-0.03089848
171	0x3d719d76	0.058988057
172	0x3ca1a218	0.019730613
173	0x3d72a715	0.059241373
174	0x3db1a01a	0.08673115
175	0x3d1f7baf	0.038936313
176	0xbd434864	-0.04767646
177	0xbd8f7d2c	-0.070062965
178	0x3cd5e9f6	0.026112538
179	0x3d3e2155	0.046418507
180	0xbce3c920	-0.027805865
181	0xbcd35205	-0.025795946
182	0x3d62f081	0.055405144
183	0x3c9c0a62	0.01904792
184	0x3d515903	0.05111028
185	0xbdaa0114	-0.08300987
186	0xbd87a9af	-0.066241615
187	0x3d619fe7	0.055084135
188	0xbd58e5ea	-0.052953638
189	0x3c87bba3	0.016568964
190	0x3c6473b2	0.0139436
191	0xbca8f39a	-0.02062397
192	0xbd01e66d	-0.03171389
193	0x3d9731c6	0.073825404
194	0x3c24c5aa	0.010056892
195	0xbcfd3ce6	-0.030912828
196	0xbd1e3a8b	-0.03863005
197	0x3d9e9e7f	0.077450745
198	0x3d831e81	0.064023025
199	0xbc9fcbea	-0.019506413
200	0xbd7e4125	-0.062073845
201	0xbd1a936a	-0.03773824
202	0xbc92b939	-0.017910587
203	0xbd571f36	-0.05252
204	0x3da21c7f	0.079155914
205	0x3d882996	0.06648557
206	0x3cc26355	0.023729006
207	0xbd8a6c13	-0.06758895
208	0xbcf563ef	-0.029954879
209	0xbcc6e392	-0.024278436
210	0x3da2be03	0.07946398
211	0x3dae4af5	0.08510391
212	0x3d8f933e	0.07010506
213	0xbc9e0eb0	-0.019294113
214	0xbc14f392	-0.009091275
215	0x3c389aac	0.011267345
216	0xbd855fd7	-0.065124206
217	0x3cbe7363	0.02324838
218	0x3ca19f2f	0.019729225
219	0xbd3770fa	-0.044785477
220	0x3cd10d4f	0.025519041
221	0x3b993431	0.004675411
222	0xb859992c	-5.1879484e-05
223	0xbd6e2079	-0.058136437
224	0xbd4ae2a0	-0.049532533
225	0xbd27f7bc	-0.041007742
226	0xbd7b272f	-0.061316665
227	0xbd028964	-0.031869307
228	0x3daabe41	0.08337069
229	0x3d93e6e0	0.0722177
230	0x3b71c211	0.0036889354
231	0x3d64f259	0.055895183
232	0x3c699b20	0.014258176
233	0x3c87f1b5	0.016594747
234	0x3c83d31b	0.016091874
235	0x3cd733f4	0.02626989
236	0xbb670854	-0.0035252767
237	0xbd715019	-0.058914278
238	0xbd8ed099	-0.069733806
239	0xbd25b318	-0.040454
240	0xbcef520f	-0.029213933
241	0xbaed5148	-0.0018105889
242	0xbccab980	-0.024746656
243	0xb9f4006f	-0.0004653963
244	0x3d8f5e2a	0.07000382
245	0xbd8e015e	-0.069338545
246	0xbcb74ca2	-0.022375409
247	0x3c08c9e4	0.008348916
248	0x3db1107c	0.08645722
249	0xbc0b672c	-0.008508485
250	0x3cf2fbe4	0.029661126
251	0xbd8d6a7e	-0.069050774
252	0x3d529fc7	0.051421907
253	0xbd9e830c	-0.07739839
254	0x3d95ba6c	0.07310948
255	0x3c94d0d1	0.018165978

conv2.bias f4 [32]
0	0xbca37a34	-0.019955732
1	0xbd81f1f3	-0.06344976
2	0x3dc77606	0.09739308
3	0x3d09e003	0.0336609
4	0x3dffc1db	0.12488147
5	0xbe0f92a5	-0.14020784
6	0x3ddacb8e	0.10683356
7	0xbdc17fb1	-0.09448183
8	0xbc9cc857	-0.019138498
9	0x3cb78168	0.022400573
10	0x3d45966e	0.048239164
11	0xbe098694	-0.13430244
12	0x3dd26998	0.10274047
13	0x3d2fb5ba	0.042897917
14	0xbdaa1503	-0.08304789
15	0xbb4bf4f7	-0.0031121352
16	0xbd4c60bc	-0.04989694
17	0x3dfec0ca	0.12439115
18	0x3cbf79f2	0.023373578
19	0x3d72bea0	0.059263825
20	0xbd8500d1	-0.06494296
21	0x3caa67a4	0.020801373
22	0x3d5a7769	0.053336535
23	0x3e01e6e5	0.12685736
24	0x3d6e59a6	0.058190964
25	0x3d1d18a0	0.038353562
26	0x3b24c9e6	0.0025144755
27	0x3e149d6d	0.14513178
28	0xbdc8dfca	-0.098083094
29	0xbe028a0d	-0.12747975
30	0x3dc57f5b	0.09643432
31	0xbc3ba9b2	-0.011454033

deconv2.weight f4 [32, 16, 3, 3]
0	0xbda0ce2e	-0.07851826
1	0xbcd4ac7f	-0.025961159
2	0x3da27e30	0.079342246
3	0xbd68242f	-0.056675132
4	0x3d0b1693	0.033957075
5	0xbc8b2696	-0.016986173
6	0xbd4bea44	-0.04978396
7	0xbca3317a	-0.019921053
8	0xbd4dc649	-0.050237928
9	0x3da40039	0.08007855
10	0xbda19f59	-0.07891721
11	0x3da5e184	0.08099654
12	0xbd9e6ef7	-0.077360086
13	0xbd16ca58	-0.036814064
14	0x3c82c71f	0.015964089
15	0x3c24b4c6	0.010052865
16	0x3ce46803	0.027881628
17	0x3c0052a7	0.007832206
18	0xbd071790	-0.032981455
19	0xbd27ad49	-0.040936742
20	0x3cd40a88	0.025883928
21	0x3d91dc5e	0.0712211
22	0xbcb9b695	-0.02267007
23	0xbd728112	-0.059205122
24	0x3d0b9f55	0.034087498
25	0x3ccf0181	0.025269272
26	0xbd5a66c5	-0.053320665
27	0x3d12426d	0.03570788
28	0x3d9586c8	0.07301098
29	0xbcda2b9f	-0.026632128
30	0x3d98ad7b	0.07454964
31	0x3ca11d88	0.019667402
32	0xbc812727	-0.01576574
33	0x3c7f9bc3	0.015601101
34	0x3d517744	0.05113913
35	0xbd161452	-0.036640473
36	0x3d2bcc9f	0.04194319
37	0x3d969fa6	0.07354669
38	0xbc99c8ac	-0.018772446
39	0x3b42732a	0.0029670694
40	0xbd17e846	-0.037086748
41	0xbd0f9370	-0.035052717
42	0x3d87a195	0.06622616
43	0x3d9a1196	0.075228855
44	0x3d87f003	0.066375755
45	0x3d67bf61	0.056578998
46	0xba27a5ec	-0.0006395269
47	0x3da22166	0.079165265
48	0x3d6b4199	0.057435606
49	0x3d9b1933	0.07573166
50	0xbcdbf137	-0.026848419
51	0x3d8c6b55	0.068564095
52	0x3ccd3dbf	0.025053857
53	0x3d8d2939	0.06892628
54	0x3d3cca73	0.046091508
55	0xbd35415e	-0.044251792
56	0x39e6ab44	0.0004399662
57	0xbd5a779e	-0.053336732
58	0x3d526ce4	0.051373377
59	0xbc62d75d	-0.013845292
60	0x3d3941f6	0.04522892
61	0xbd9003aa	-0.07031949
62	0x3ca318df	0.01990932
63	0x3d9de0dc	0.07708904
64	0x3d6f3239	0.058397505
65	0x3d17e2aa	0.037081398
66	0x3b8ad8c2	0.0042372653
67	0xbd9525e0	-0.07282615
68	0x3c424bce	0.011858894
69	0x3d3d9c6f	0.046291765
70	0xbd90253d	-0.07038353
71	0xbc24d23f	-0.010059892
72	0x3d1e11bf	0.038591143
73	0xbbca06e4	-0.006165372
74	0x3d07bcea	0.033139147
75	0xbc0be97e	-0.008539556
76	0xbd04f089	-0.032455955
77	0xbc3a0861	-0.011354537
78	0x3bd9a729	0.0066422415
79	0x3cad247b	0.02113556
80	0xbbce3f9c	-0.006294204
81	0x3d0e4607	0.034734752
82	0x3d353dfe	0.044248573
83	0xbc2f29b2	-0.010691093
84	0xbc60e829	-0.013727226
85	0xbd9bfebf	-0.07616948
86	0x3da12ee4	0.07870272
87	0x3c79c4f4	0.015244711
88	0xbcd7a84b	-0.026325366
89	0xbd34e31c	-0.0441619
90	0xbb20cc3d	-0.0024535798
91	0xbda401d9	-0.08008165
92	0x3be2ab05	0.00691736
93	0x3c4b97c8	0.012426324
94	0x3cbc41fc	0.022980683
95	0x3ce2d13b	0.02768766
96	0x3d325c87	0.043545272
97	0x3d190f14	0.037367895
98	0xbd18801c	-0.03723155
99	0x3c801e8d	0.015639568
100	0x3cfdd069	0.030983167
101	0x3d1a1544	0.037617937
102	0x3ca7c523	0.020479744
103	0xbc86896e	-0.016422953
104	0xbc6cce91	-0.014453546
105	0xbd26cef9	-0.04072473
106	0x3cfd7a5c	0.030942135
107	0xbd0542c5	-0.03253438
108	0x3cdbe73d	0.026843661
109	0xbd84748d	-0.06467543
110	0xbd7c7fcd	-0.061645318
111	0xbd86c475	-0.0658044
112	0xbd27164d	-0.040792752
113	0x3d9d4c20	0.07680535
114	0xbd800273	-0.06250467
115	0x3cf42125	0.02980096
116	0x3d80defa	0.062925294
117	0xbdb20071	-0.086914904
118	0xbd8385db	-0.06422015
119	0x3d9072e8	0.07053167
120	0xbda178fb	-0.07884403
121	0xbd9ea7bd	-0.07746837
122	0xbd95bdd5	-0.07311598
123	0xbc9ab0fa	-0.018883217
124	0x3d47058c	0.048589274
125	0xbc5d43e5	-0.013504957
126	0xbd0d851d	-0.034550775
127	0xbbfd6b14	-0.007733712
128	0x3d99b7ea	0.07505782
129	0xbc8ca189	-0.01716687
130	0xbd43181c	-0.047630414
131	0xbd20ecf5	-0.03928848
132	0x3c545800	0.012960434
133	0xbd63296f	-0.055459436
134	0xbd93c5ae	-0.07215439
135	0xbc3f56b4	-0.0116783865
136	0xbc96d893	-0.018413818
137	0xbda1aefd	-0.078947045
138	0x3c3fd248	0.01170785
139	0xbd26c228	-0.040712506
140	0x3b7d4cc8	0.0038650502
141	0x3caad7d2	0.020854864
142	0xbc62eef9	-0.013850921
143	0xbd24597c	-0.0401244
144	0xbcb1d881	-0.021709682
145	0x3d5bf27e	0.053698055
146	0xbd15e038	-0.036590785
147	0xbc9f4f13	-0.019446885
148	0x3cae8892	0.021305356
149	0xbb4035fb	-0.002932905
150	0xbd3ccdfd	-0.046094883
151	0xbd2ef36e	-0.04271262
152	0xbc39736c	-0.011319023
153	0x3d8349e0	0.06410575
154	0x3da9d912	0.08293356
155	0xbd3c6618	-0.0459958
156	0xbdb47122	-0.08810641
157	0x3cac047a	0.020998228
158	0x3d29ab6c	0.041423246
159	0xbcfe1dcd	-0.03102007
160	0x3d1cfbc8	0.038326055
161	0x3d4086de	0.04700362
162	0x3d916084	0.07098487
163	0xbda49d3a	-0.08037801
164	0xbc1f00a5	-0.0097047435
165	0xbc3ca66e	-0.011514289
166	0x3cbd3f09	0.023101347
167	0xbd125e86	-0.035734676
168	0x3cc79c32	0.024366472
169	0xbccca25e	-0.024979766
170	0xbca00109	-0.019531744
171	0x3d50274b	0.050818723
172	0x3c1f0c66	0.009707546
173	0x3cf3d98a	0.029766817
174	0xbd0b04eb	-0.033940237
175	0x3d6e3e76	0.058165036
176	0x3d948d7a	0.07253547
177	0x3d265051	0.04060394
178	0xbd0a40fa	-0.033753373
179	0xbd74049c	-0.05957471
180	0x3da50faa	0.08059628
181	0xba471594	-0.0007594463
182	0xbd85a2fc	-0.065252274
183	0xbd811770	-0.063032985
184	0xbcb6c2a9	-0.022309618
185	0x3da26bd9	0.079307266
186	0x3d73b25e	0.059496276
187	0xbd69fb73	-0.057124566
188	0x3be3a467	0.0069470885
189	0xbc9f895a	-0.019474674
190	0x3987b8ed	0.00025886987
191	0x3d78afa2	0.06071437
192	0x3d74372c	0.05962293
193	0x3d70da42	0.058801897
194	0xbd07e6c2	-0.033179052
195	0x3aef7e30	0.001827186
196	0xbd833ebb	-0.06408449
197	0x3bc46d67	0.005994487
198	0x3d27f369	0.04100362
199	0xbdb5b27b	-0.08871933
200	0xbdbd7895	-0.09251515
201	0x3d10dac0	0.035364866
202	0xbdacdf72	-0.08441056
203	0xbca1feb3	-0.01977477
204	0xbd8005eb	-0.06251129
205	0x3c8aff47	0.016967429
206	0xbdabee64	-0.08395079
207	0xbd80090c	-0.062517256
208	0x3d35bb3a	0.044368006
209	0x3d6e614c	0.05819826
210	0xbcd4f040	-0.025993466
211	0x3d572a8e	0.052530818
212	0x3d85d015	0.06533829
213	0x3c93d4d9	0.01804583
214	0xbd3626af	-0.044470485
215	0x3ba0758c	0.004896825
216	0xbc337f32	-0.010955619
217	0xbd94aedb	-0.072599135
218	0x3d68c2c5	0.05682637
219	0x3d0227d4	0.031776264
220	0xbcaf9eaa	-0.021437962
221	0x3d62143f	0.05519509
222	0xbca14760	-0.019687355
223	0x3b6d92a4	0.0036250735
224	0xbd718219	-0.05896196
225	0x3d2fb71b	0.042899232
226	0x3ce33157	0.027733488
227	0xbcef84d7	-0.029238148
228	0xbb41467d	-0.0029491477
229	0x3b9866da	0.0046509327
230	0x3d7dbc83	0.061947357
231	0xbcb151a9	-0.021645384
232	0x3cbf3317	0.023339791
233	0x3d983dce	0.07433663
234	0x3d6acf11	0.05732638
235	0xbd54761d	-0.051870454
236	0x3d54dae6	0.05196657
237	0xb9871658	-0.00025765854
238	0xbdae62d2	-0.08514942
239	0xbd5b057c	-0.053472027
240	0xbc308c0d	-0.010775578
241	0xbd45d795	-0.0483013
242	0x3aeb1457	0.0017935139
243	0xbd821e6b	-0.06353458
244	0xbd7ec4a5	-0.062199254
245	0xbce67711	-0.028132947
246	0xbd60fd6f	-0.054929193
247	0x3d44da47	0.048059728
248	0xbaa0b826	-0.0012261912
249	0xbbfe215f	-0.007755443
250	0xbc594478	-0.013260953
251	0x3d84f47a	0.06491943
252	0xbca8b76e	-0.020595279
253	0x3c455ae1	0.012045593
254	0xbd780f83	-0.060561668
255	0x3d1ac33c	0.037783846

deconv2.bias f4 [16]
0	0x3cd30516	0.025759261
1	0x3d2c6e58	0.04209742
2	0x3d1cee0a	0.03831295
3	0xbdfaa297	-0.12238043
4	0xbc0d9643	-0.008641782
5	0x3e15ecdb	0.14641134
6	0x3d36950f	0.044575747
7	0x3cc57fc5	0.024108777
8	0xbdcb63dc	-0.09931156
9	0xbca58be0	-0.0202083
10	0x3e0de1cd	0.13855667
11	0xbcd02349	-0.02540745
12	0x3d0aa3f9	0.033847783
13	0x3cbf6d63	0.02336759
14	0x3d040c87	0.03223851
15	0x3d7db703	0.06194211

deconv1.weight f4 [16, 1, 3, 3]
0	0xbe95fa23	-0.29292402
1	0x3e777fe5	0.24169882
2	0x3e4f6b7d	0.20255847
3	0xbe12f2a0	-0.14350367
4	0x3dc41721	0.09574724
5	0xbe907fdd	-0.28222552
6	0x3e8d2327	0.27565882
7	0xbd88909b	-0.06668206
8	0x3e689c56	0.22715887
9	0x3e340856	0.17581305
10	0xbe235114	-0.15948898
11	0xbe4d6fd4	-0.2006219
12	0xbe3a3f69	-0.18188252
13	0x3e9ae96a	0.30256206
14	0xbd16df4b	-0.036834043
15	0x3e8fc5d7	0.28080627
16	0x3ba7d6e5	0.005122053
17	0x3d8abcb3	0.06774273
18	0x3a25b41d	0.00063210895
19	0x3e330f87	0.17486392
20	0xbdc37db2	-0.09545459
21	0x3e84edc9	0.25962666
22	0x3d25cfca	0.040481366
23	0x3d24dd76	0.040250264
24	0x3b47415a	0.0030403943
25	0x3e7129fb	0.2355117
26	0x3dec0f4c	0.11526355
27	0xbe748d43	-0.23882012
28	0x3de29188	0.11062914
29	0x3e102313	0.1407588
30	0x3e22916a	0.15875784
31	0xbea7f937	-0.32807323
32	0x3d94ae96	0.07259862
33	0xbea9821e	-0.33107084
34	0xbe9510b2	-0.291143
35	0x3e98b15f	0.29822823
36	0x3cd634ef	0.026148288
37	0x3e0a26d0	0.13491368
38	0xbe4112cf	-0.18854831
39	0xbdf2d19c	-0.11856386
40	0x3e82d775	0.25555006
41	0xbe8c7904	-0.27436078
42	0x3e83633f	0.25661656
43	0x3e10afb2	0.14129522
44	0xbb2df64e	-0.0026544514
45	0xbe9f5071	-0.3111606
46	0xbe0059d3	-0.12534265
47	0x3e8023aa	0.2502721
48	0xbd41f388	-0.04735139
49	0xbe2cee9d	-0.16887899
50	0x3e8cfae1	0.27535155
51	0x3e1d2921	0.1534772
52	0x3eaca61a	0.33720475
53	0xbe2b7b49	-0.16746248
54	0xbcd0953f	-0.025461791
55	0x3d66e8ad	0.05637424
56	0x3e26676e	0.16250393
57	0xbd4eb671	-0.05046696
58	0xbe7fefa3	-0.24993758
59	0x3e865717	0.2623832
60	0x3d104618	0.035223097
61	0x3c4b25b7	0.012399129
62	0xbd959e37	-0.07305568
63	0x3e905022	0.28186136
64	0x3e3a1918	0.18173635
65	0xbea5f9d5	-0.3241717
66	0xbd4b826a	-0.04968492
67	0x3dde1e25	0.10845593
68	0x3ea378e6	0.31928176
69	0x3d0977a9	0.033561382
70	0x3e7a6f8f	0.24456619
71	0x3df43042	0.11923267
72	0xbe40a917	-0.18814503
73	0x3e863ea4	0.26219666
74	0xbe849683	-0.2589608
75	0x3e284e50	0.16436124
76	0x3c3305f6	0.010926714
77	0xbe9b93ac	-0.30386102
78	0xbe5b3e81	-0.21410562
79	0xbde75b22	-0.11296679
80	0xbea1786d	-0.3153719
81	0xbea822b8	-0.32838988
82	0x3dc89a5e	0.09795068
83	0x3e21a510	0.15785623
84	0xbdf60567	-0.12012749
85	0x3e6ba0bf	0.23010539
86	0xbc061a6e	-0.008185012
87	0x3e35e273	0.17762165
88	0x3bb5190a	0.0055266665
89	0xbe672f90	-0.22576737
90	0x3cdca174	0.026932456
91	0x3e83b8f6	0.25727051
92	0x3e385d6c	0.18004388
93	0xbe162ac6	-0.14664754
94	0xbe15bf37	-0.14623724
95	0x3c2fa9f2	0.01072167
96	0xbe243756	-0.16036734
97	0xbd2a7285	-0.04161312
98	0x3e44f382	0.19233516
99	0x3d830c18	0.06398791
100	0x3e9aabe3	0.30209264
101	0xbe558131	-0.20850064
102	0xbd9c2cc0	-0.07625723
103	0xbcf60d27	-0.030035568
104	0xbc08d93f	-0.008352577
105	0xbe940546	-0.28910273
106	0x3dd5f387	0.1044684
107	0x3d20cc3a	0.039257266
108	0x3df90724	0.12159565
109	0x3e048500	0.1294136
110	0xbd56f354	-0.05247815
111	0xbea1857c	-0.31547153
112	0xbd9ce0d4	-0.0766007
113	0x3ea13543	0.31485948
114	0xbe576010	-0.21032739
115	0x3e1ff898	0.15622175
116	0x3e32ca30	0.17459941
117	0xbe98f18d	-0.2987179
118	0x3e9f9bf8	0.31173682
119	0xbe41cfbb	-0.18926899
120	0xbe06dc46	-0.13169965
121	0xbcef02b0	-0.029176086
122	0x3c8f356e	0.017481532
123	0x3df45589	0.11930377
124	0x3da18ce7	0.07888203
125	0x3e0b6601	0.1361313
126	0xbe9165f3	-0.28398094
127	0x3da90dfd	0.08254621
128	0x3c7dd617	0.0154929375
129	0x3de7deb6	0.113217756
130	0xbcad55bc	-0.021159045
131	0xbe79a22e	-0.24378273
132	0x3e0c3d81	0.13695337
133	0x3e3291e3	0.17438464
134	0xbe0748d8	-0.13211381
135	0x3d8175eb	0.06321319
136	0x3e6f9779	0.23397626
137	0x3d14ccbd	0.036328066
138	0xbdd66def	-0.10470187
139	0xbdbc8efe	-0.09206961
140	0xbd1933ff	-0.037403103
141	0x3ddf6675	0.10908214
142	0xbe17ea2a	-0.1483542
143	0x3d057be1	0.032588843
